best_q_weights_mm.pth (torch, 73523 bytes, 8 tensors)

conv.weight f4 [32, 1, 4, 4]
0	0xbe31a5e6	-0.17348441
1	0x3cc4db3b	0.024030318
2	0xbe2b685b	-0.16739027
3	0xbe29cb5a	-0.16581479
4	0x3e0343fe	0.12818906
5	0x3e7f46a8	0.24929297
6	0x3e02f648	0.12789261
7	0x3e488f4d	0.19585915
8	0x3e4287af	0.18997072
9	0xbe56d879	-0.20981015
10	0xbcab3fe1	-0.020904483
11	0x3d0f65bd	0.035009135
12	0xbe20b69c	-0.1569466
13	0xbc7398d3	-0.014867979
14	0x3e7f139a	0.24909821
15	0x3e00e745	0.12588222
16	0xbe8d2bf4	-0.27572596
17	0xbda5a04e	-0.08087216
18	0xbf2a2522	-0.6646291
19	0x3e594c1f	0.21220444
20	0xbec33889	-0.3812907
21	0x3e3e84a4	0.18605286
22	0xbe8df895	-0.27728716
23	0xbe80a100	-0.25122833
24	0xbf06ef68	-0.52709055
25	0xbdfabcc9	-0.12243039
26	0x3e33ea55	0.1756986
27	0xbeefc18e	-0.46827358
28	0xbecdab26	-0.40169638
29	0xbc830992	-0.015995774
30	0xbe2945aa	-0.16530481
31	0xbe533949	-0.20627321
32	0x3f01b8c1	0.5067254
33	0x3e897240	0.26844978
34	0x3e88a9aa	0.26691943
35	0x3cdcabc6	0.026937377
36	0x3df1d6da	0.11808558
37	0x3dbcd705	0.09220699
38	0xbe03a29b	-0.12854998
39	0xbeaaf5e8	-0.33390737
40	0xbf232514	-0.6372845
41	0xbe213ece	-0.15746614
42	0xbe02cd9e	-0.12773749
43	0xbe0c3baf	-0.13694642
44	0xbec2a742	-0.38018233
45	0x3d8d0b26	0.06886892
46	0xbd7963e3	-0.060886275
47	0x3e47fc32	0.19529799
48	0xbdbd799d	-0.092517115
49	0x3f476160	0.7788296
50	0xbef6ea69	-0.48225716
51	0x3f43db34	0.7650635
52	0xbeabb8b8	-0.33539367
53	0xbeb9af42	-0.36266524
54	0xbe8ed9ee	-0.27900642
55	0x3e7f865e	0.24953601
56	0xbe1647f6	-0.14675888
57	0x3e5d1d90	0.21593308
58	0x3e689ec2	0.22716811
59	0x3e950895	0.2910811
60	0x3e9aac2b	0.3020948
61	0xbc2724c0	-0.010201633
62	0x3e86ce8a	0.26329452
63	0x3e99ce93	0.30040416
64	0x3ea0901e	0.31359953
65	0xbd8fa9a1	-0.07014776
66	0x3c02a2fa	0.007973427
67	0x3dd856f1	0.10563458
68	0xbdeaa901	-0.11458016
69	0x3cd9163f	0.026499866
70	0xbcaab5a9	-0.020838575
71	0xbd5a0bd2	-0.05323393
72	0x3d311aee	0.043238573
73	0x3d1ed938	0.038781375
74	0x3e2e881c	0.17044109
75	0xbd6a1f68	-0.057158858
76	0x3d802d44	0.06258634
77	0x3db14018	0.08654803
78	0x3e9cfda9	0.30662277
79	0xbd6103dd	-0.054935325
80	0x3eb49149	0.35267094
81	0x3e3bff2f	0.18359064
82	0xbde6a4fb	-0.11261936
83	0x3e9d252c	0.30692422
84	0x3e89f207	0.26942465
85	0x3d8c8a09	0.068622656
86	0xbe25da40	-0.16196537
87	0x3e9ebe4d	0.31004563
88	0x3d7aa406	0.06119158
89	0x3d58af96	0.052901827
90	0x3e59c07d	0.21264835
91	0xbe19446e	-0.1496751
92	0xbe0cf986	-0.1376706
93	0x3df0df8d	0.11761389
94	0x3e7119e1	0.23545028
95	0x3e0d3821	0.13790943
96	0xbeca35e4	-0.3949424
97	0xbe30de7d	-0.17272373
98	0xbdcda2e2	-0.10040833
99	0x3ecd1cee	0.40061134
100	0x3c482843	0.01221663
101	0xbe901ee5	-0.2814857
102	0xbc5ee674	-0.013604749
103	0x3e179b36	0.14805302
104	0xbab06270	-0.0013457071
105	0xbde5c9b7	-0.11220115
106	0x3e08b2a0	0.1334939
107	0x3e80ef8d	0.25182763
108	0x3de44ad0	0.11147082
109	0xbdd7bfff	-0.10534667
110	0x3e601295	0.21882088
111	0x3db63a23	0.088978074
112	0xbe8146a2	-0.252492
113	0x3e2ca873	0.16861133
114	0xbec7098b	-0.38874468
115	0xbe1f0404	-0.15528876
116	0xbdc79eb5	-0.09747068
117	0x3f00b4f1	0.50276095
118	0x3e988494	0.2978865
119	0xbea912a0	-0.33022022
120	0x3e8cdf51	0.27514127
121	0x3d3929f2	0.045206018
122	0xbee26614	-0.44218504
123	0x3e85d4d4	0.26138937
124	0x3e026a4b	0.1273586
125	0x3d3c2ad2	0.045939274
126	0x3d4f0626	0.050542973
127	0x3db0fa34	0.086414725
128	0xbef90300	-0.486351
129	0xbf1ef97a	-0.6209942
130	0x3e1446fe	0.14480206
131	0x3e0d2013	0.13781767
132	0xbe5d9743	-0.21639733
133	0xbebeffe4	-0.37304604
134	0xbe3fa9c4	-0.18717104
135	0xbe547591	-0.20747973
136	0x3dd3c2b7	0.10339873
137	0xbcfdebaf	-0.030996172
138	0x3e78ac50	0.24284482
139	0x3f0a6d26	0.540728
140	0xbda98776	-0.0827779
141	0x3e1d1ff9	0.15344228
142	0x3d53056c	0.051518843
143	0xbe9feb4a	-0.312342
144	0x3e2ab3bc	0.16670126
145	0x3dd261f8	0.10272592
146	0xbec45678	-0.3834722
147	0x3ec124ff	0.37723538
148	0x3e92d9d0	0.28681803
149	0x3dcaf1c4	0.099093944
150	0x3e0fa19b	0.14026491
151	0x3ee92dd9	0.4554279
152	0x3da44d29	0.0802253
153	0x3d4d3fd0	0.050109684
154	0x3dd9ce93	0.10635104
155	0xbe9c83b2	-0.30569226
156	0xbde00b9b	-0.109397136
157	0x3d2f8c77	0.042858567
158	0x3e44f081	0.1923237
159	0x3c8a4bf8	0.016881928
160	0x3ba66b74	0.0050787274
161	0x3f4aa4e1	0.79157835
162	0x3d636a96	0.05552157
163	0x3d06ef7e	0.03294324
164	0x3e33e0d7	0.17566238
165	0x3d567ca0	0.052364945
166	0x3e27ff3b	0.16405956
167	0xbe9f3259	-0.310931
168	0x3e2f5651	0.17122771
169	0xbe9862c9	-0.29762867
170	0xbf0d2c21	-0.5514546
171	0xbc41628d	-0.0118032815
172	0xbe3ea2ed	-0.18616839
173	0xbda3ddbb	-0.08001276
174	0xbd0f43f7	-0.034976926
175	0xbd40a200	-0.047029495
176	0xbe526a1f	-0.20548294
177	0x3e1b33e8	0.1515652
178	0x3ee9560b	0.45573458
179	0xbe2b4922	-0.16727117
180	0xbe4afe55	-0.19823582
181	0x3d2b907e	0.041885845
182	0x3e58e6c6	0.21181783
183	0xbf1dd405	-0.6165164
184	0xbdad5ed2	-0.08465351
185	0xbe3c292d	-0.18375082
186	0xbec12ac2	-0.37727934
187	0xbc7f3bc8	-0.015578218
188	0x3cbc3b7b	0.022977581
189	0x3dd203ac	0.102546066
190	0x3efcdaf2	0.49385792
191	0xbd96e17a	-0.07367225
192	0xbf1c6b6b	-0.61101407
193	0x3c858a85	0.016301403
194	0x3c46845b	0.012116517
195	0xbe788821	-0.24270679
196	0xbed9b5db	-0.42521557
197	0xbe078b8a	-0.13236824
198	0x3d0650be	0.032791846
199	0x3ecef65e	0.40422338
200	0xbe750200	-0.23926544
201	0xbe3d7a3d	-0.18503661
202	0x3d59aee6	0.05314531
203	0xbe20a7e4	-0.15689045
204	0xbeb361fb	-0.3503569
205	0x3e673bf6	0.22581467
206	0x3e778b12	0.24174145
207	0x3e2e683f	0.17031954
208	0x3e077ce6	0.13231239
209	0xbe30973e	-0.17245194
210	0xbecbacac	-0.39780176
211	0x3e498a23	0.19681601
212	0xbbfdd012	-0.007745751
213	0xbdd65397	-0.10465162
214	0x3ed12a60	0.40852642
215	0x3e1a05a6	0.15041217
216	0x3e4cea6f	0.20011304
217	0x3e3d1c50	0.18467832
218	0x3c5d26bb	0.013498004
219	0x3e068be6	0.13139305
220	0xbd8db49c	-0.06919214
221	0xbd182f5f	-0.03715455
222	0x3e47d505	0.19514854
223	0x3e2a81bf	0.16651057
224	0xbf041205	-0.51589996
225	0xbe575236	-0.21027455
226	0xbf35cc75	-0.710151
227	0x3f058a38	0.5216403
228	0xbd8be799	-0.06831283
229	0xbecec57a	-0.40385038
230	0xbe90f680	-0.28313065
231	0xbee99a96	-0.45625752
232	0xbe71b1e8	-0.23603022
233	0xbeea2f51	-0.45739225
234	0xbe6d4fa3	-0.2317491
235	0x3e8ffbc1	0.2812176
236	0x3e9de65e	0.3083982
237	0xbe621d23	-0.22081427
238	0x3dc7a66b	0.097485386
239	0x3d1951cd	0.037431527
240	0xbc9a281a	-0.01881795
241	0xbcbdcb7e	-0.023168322
242	0xbe0bd386	-0.13654909
243	0xbe5fea40	-0.21866703
244	0x3eaa5deb	0.3327478
245	0x3eae87a5	0.34087864
246	0x3ed57b18	0.41695476
247	0x3ddcd063	0.10781934
248	0xbdc8dc70	-0.0980767
249	0xbe1dce4a	-0.15410724
250	0xbe507b1b	-0.20359461
251	0xbea4f028	-0.32214475
252	0x3ee1d37b	0.4410666
253	0xbd29234f	-0.04129344
254	0xbf0313fd	-0.51202375
255	0xbebf7ff4	-0.37402308

conv.bias f4 [32]
0	0x3e282c51	0.16423155
1	0xbe5b172e	-0.21395561
2	0xbe6586a9	-0.2241465
3	0xbed439c5	-0.41450325
4	0x3e14e440	0.14540195
5	0xbbe97691	-0.00712473
6	0x3e1141f8	0.14185321
7	0xbeb37e6e	-0.35057396
8	0xbf08bfb9	-0.53417546
9	0xbc135da2	-0.008994492
10	0xbe80a62f	-0.25126788
11	0xbf16e196	-0.58937967
12	0xbf032e3b	-0.5124242
13	0x3dcaac0a	0.09896095
14	0xbf39f439	-0.7263828
15	0xbef0e25f	-0.47047707
16	0x3c914121	0.017731251
17	0xbf2f7315	-0.68534976
18	0xbe6f20a7	-0.233523
19	0x3e2af6c3	0.16695695
20	0xbe6c4a64	-0.23075253
21	0xbe914165	-0.28370205
22	0xbe153b7c	-0.14573473
23	0x3e5fa6cd	0.21840973
24	0xbf36b5c7	-0.7137112
25	0x3c62ee70	0.013850793
26	0xbef27908	-0.47357965
27	0xbf0fff3a	-0.5624882
28	0xbf0d051e	-0.55085933
29	0x3e21c63b	0.15798275
30	0xbf238bcf	-0.63885206
31	0xbe8e16ee	-0.2775187

fc1.weight f4 [42, 384]
0	0x3e4e2390	0.20130754
1	0x3db640e7	0.08899098
2	0x3d117b28	0.03551784
3	0xbca3d81f	-0.020000516
4	0x3e22dc42	0.15904334
5	0x3decbd94	0.11559597
6	0x3e6abfab	0.22924678
7	0x3e81d88c	0.25360525
8	0x3eb02f55	0.3441111
9	0x3eb576d4	0.3544222
10	0x3db6f515	0.089334644
11	0xbd100ef8	-0.035170525
12	0x3d92e2b1	0.07172144
13	0xbf72e18e	-0.9487542
14	0x3e6e395f	0.23264073
15	0x3eb7a900	0.35871124
16	0xbee00310	-0.43752337
17	0xbf0770bc	-0.52906394
18	0xbe806652	-0.25078064
19	0xbe61eb93	-0.2206252
20	0xbed548b9	-0.41657045
21	0x3e671539	0.2256669
22	0xbe8504a2	-0.25980097
23	0xbcda5e7c	-0.026656382
24	0x3e6ab1cf	0.22919391
25	0xbec6cae8	-0.3882668
26	0xbf39ac5b	-0.7252862
27	0x3d512e84	0.05106975
28	0xbe084412	-0.13307217
29	0xbf1d6dfe	-0.6149596
30	0x3e7c5c70	0.24644637
31	0xbbfc29f9	-0.007695433
32	0x3c1103cf	0.008851006
33	0x3ef12aa3	0.47102842
34	0x3cb1ec74	0.021719195
35	0xbe492a03	-0.19644932
36	0xbe8e9014	-0.27844298
37	0x3e82c08b	0.25537524
38	0xbedfcbb5	-0.43710104
39	0xbe13674b	-0.14394872
40	0x3ed12587	0.40848944
41	0x3ec38366	0.38186187
42	0xbf33f42b	-0.70294446
43	0xbe047c5b	-0.12938063
44	0x3da33aab	0.079701744
45	0xbda2d670	-0.07951057
46	0xbf299084	-0.6623614
47	0xbe05aa34	-0.13053209
48	0x3e0c4945	0.13699825
49	0x3e0d78a4	0.13815552
50	0x3e8994cc	0.26871336
51	0xbcaaf5b2	-0.02086911
52	0xbd8e950d	-0.06962023
53	0x3db273cb	0.08713492
54	0xbbc81e2f	-0.006107114
55	0x3e626742	0.22109702
56	0x3eace8dd	0.3377141
57	0x3e55f604	0.20894629
58	0x3db7bb95	0.08971325
59	0x3e9c7a46	0.30562037
60	0x3d58cfc5	0.05293252
61	0x3d358ff1	0.044326726
62	0x3eac967f	0.3370857
63	0x3e71483c	0.23562711
64	0x3e8a158b	0.2696956
65	0xbe803a8e	-0.25044674
66	0x3cd4e544	0.025988229
67	0x3e3f3316	0.18671831
68	0x3e4811aa	0.19537988
69	0x3e1f0352	0.1552861
70	0xbe4ffc72	-0.20311144
71	0x3dd3a2a2	0.10333754
72	0xbb072883	-0.0020623512
73	0x3dce1a3a	0.10063596
74	0x3e3444bc	0.17604345
75	0x3e5a040a	0.21290603
76	0x3db3d78c	0.08781347
77	0x3e6e0b4c	0.23246497
78	0xbd913223	-0.07089641
79	0x3c0211ef	0.007938846
80	0x3daa9ffd	0.083312966
81	0x3dc02dad	0.09383712
82	0xbe396b84	-0.1810742
83	0x3e8cb3ea	0.27481014
84	0xbd009782	-0.03139449
85	0x3e2197c1	0.15780546
86	0xbe466e32	-0.19377974
87	0xbf01d598	-0.50716543
88	0xbea9ba5d	-0.33149996
89	0x3e57d116	0.21075854
90	0xbe76e680	-0.24111366
91	0x3ce0fea6	0.027465176
92	0x3ea94929	0.3306363
93	0x3eb2032f	0.34768054
94	0xbddf7751	-0.1091143
95	0x3ec0ec80	0.37680435
96	0xbeaed8b6	-0.34149712
97	0xbe89aece	-0.26891178
98	0x3f49514f	0.7863969
99	0xbebc37d9	-0.36761358
100	0x3e3907a3	0.1806932
101	0xbf0a94d2	-0.5413333
102	0xbe1549cc	-0.14578933
103	0xbe3cfb7e	-0.18455312
104	0x3eb4c7b6	0.35308617
105	0x3e8e16a3	0.27751645
106	0x3e2bbf43	0.1677218
107	0x3f151b28	0.5824456
108	0x3e4746f7	0.19460665
109	0xbc0d105c	-0.008609857
110	0x3e96e9f8	0.2947538
111	0x3d02289f	0.03177702
112	0x3ea13cb6	0.3149163
113	0xbe8d58dd	-0.2760686
114	0x3bda3ec9	0.0066603166
115	0x3bf21f2d	0.0073889703
116	0x3e986bba	0.2976969
117	0x3db4216f	0.087954395
118	0xbd8f5d53	-0.07000222
119	0x3b875331	0.0041297902
120	0xbf3684df	-0.71296495
121	0xbf58f112	-0.84742844
122	0x3e0b1e4f	0.1358578
123	0x3cb57ecf	0.022155194
124	0xbeb1b91e	-0.34711546
125	0xbed6a36e	-0.41921562
126	0xbee0acd7	-0.43881866
127	0x3e8c35d8	0.2738483
128	0xbe180343	-0.14844994
129	0xbce8fc2b	-0.028440556
130	0xbbcf3c12	-0.0063242996
131	0x3ee2a481	0.44266132
132	0xbf040fb1	-0.51586443
133	0xbdd1eb2e	-0.10249935
134	0x3ec59260	0.38588238
135	0xbe0943be	-0.13404748
136	0xbef2fa10	-0.47456408
137	0x3ece1ebe	0.4025783
138	0xbe8f8c77	-0.28036854
139	0x3ec2b206	0.38026446
140	0xbd9c0d83	-0.07619765
141	0x3de9ef25	0.11422566
142	0x3e6e7ae9	0.23289074
143	0xbf00932c	-0.50224566
144	0x3f05fdcb	0.5234038
145	0xbdf936c5	-0.121686496
146	0xbed9d7bb	-0.42547402
147	0xbf5aa1ec	-0.85403323
148	0x3e86a9bf	0.2630138
149	0x3eab5a54	0.33467352
150	0xbe27807f	-0.16357611
151	0x3e10535e	0.14094302
152	0x3ecf0819	0.40435866
153	0xbee33483	-0.44376
154	0xbf29f8c4	-0.6639521
155	0xbe0e137d	-0.13874622
156	0xbd5cbb65	-0.05388965
157	0x3b191793	0.0023359999
158	0xbe0408b8	-0.12893951
159	0xbe8dcbb1	-0.27694467
160	0xbd22c3a1	-0.039737348
161	0xbdaa36c8	-0.0831123
162	0xbe8a4a0c	-0.27009618
163	0x3dc26b23	0.09493091
164	0xbd2f7e56	-0.042845093
165	0x3e469cbb	0.19395725
166	0xbce26940	-0.027638078
167	0x3eba664b	0.36406168
168	0x3ee2e16d	0.4431261
169	0xbe89e870	-0.26935148
170	0x3d5f2c07	0.054485347
171	0x3ef44355	0.4770762
172	0xbecfb54e	-0.40568012
173	0xbf16b0e3	-0.5886366
174	0xbf921f93	-1.1415886
175	0xbedeed86	-0.4354059
176	0xbec27936	-0.37983102
177	0x3bf09c87	0.0073428783
178	0xbf732867	-0.94983524
179	0xbed01d35	-0.40647283
180	0xbf2bbc8f	-0.6708459
181	0xbf0909dc	-0.5353067
182	0xbefd1cef	-0.49436137
183	0x3e71ed8b	0.23625772
184	0xbe7d5c52	-0.24742249
185	0x3ccaee17	0.024771733
186	0x3ceaa8af	0.028644888
187	0xbf418a48	-0.75601625
188	0xbf0171f3	-0.505645
189	0x3c523073	0.012828934
190	0xbe82611b	-0.2546471
191	0x3ab4f15e	0.0013804843
192	0xbe11ae13	-0.1422656
193	0x3b6872ed	0.0035468892
194	0x3e17f9a1	0.1484132
195	0x3e3f261a	0.18666878
196	0x3e8c194d	0.27363053
197	0x3c4e4077	0.012588612
198	0x3d1edde0	0.038785815
199	0x3e86ed25	0.26352802
200	0x3e209aae	0.15684006
201	0xbd1d638f	-0.038425025
202	0x3e912d56	0.283549
203	0xbd0552d7	-0.032549705
204	0x3ee2d61a	0.44303972
205	0x3e9df60e	0.30851787
206	0x3e6e6bd4	0.2328332
207	0xbfb19e21	-1.3876382
208	0x3eb050a8	0.34436536
209	0xbeae40f9	-0.34033945
210	0xbf01cab0	-0.506999
211	0xbf8fb4ce	-1.1227052
212	0xbf031df2	-0.5121757
213	0xbf172252	-0.59036744
214	0xbe6131e4	-0.21991688
215	0x3e50d8ff	0.20395277
216	0xb9aa0c48	-0.00032434077
217	0x3d94964d	0.0725523
218	0xbe8aaf42	-0.27086836
219	0xbec9ce7d	-0.3941535
220	0xbef7fcd8	-0.48435092
221	0x3da5cadf	0.08095335
222	0xbe06200b	-0.13098161
223	0x3ca33012	0.019920383
224	0x3eba3ba8	0.3637364
225	0xbd8e6326	-0.06952505
226	0x3e0b0311	0.13575388
227	0x3ebca0c9	0.3684142
228	0xbced3d1a	-0.0289598
229	0xbc659874	-0.014013398
230	0x3d659b2a	0.05605618
231	0xbe0df642	-0.13863471
232	0xbb8cd63f	-0.004298001
233	0x3e5d0a3f	0.2158594
234	0x3d6db587	0.058034446
235	0xbbc36e30	-0.005964063
236	0x3ea42a40	0.32063484
237	0x3d4a9d64	0.049466506
238	0x3e9c8701	0.3057175
239	0xbdb35724	-0.08756855
240	0x3e28f66f	0.16500257
241	0x3e0415e4	0.12898976
242	0xbe859484	-0.2608987
243	0xbedc4935	-0.43024603
244	0xbe32564f	-0.17415737
245	0xbe996f08	-0.29967523
246	0x3e5156d8	0.20443285
247	0x3ea255ab	0.31705984
248	0x3e326019	0.17419471
249	0xbcbb40b3	-0.022858
250	0x3ed9ef85	0.4256555
251	0xbd8e86c0	-0.06959295
252	0x3e405883	0.18783765
253	0x3f2f82d7	0.6855902
254	0xbf150fc4	-0.5822718
255	0x3ec7e7a3	0.39043912

fc1.bias f4 [42]
0	0x3e6c3ad0	0.2306931
1	0xbe1a75e1	-0.1508403
2	0xbd63c6ff	-0.0556097
3	0x3e67face	0.22654268
4	0xbd8abecf	-0.06774675
5	0xbdd8a415	-0.10578171
6	0xbe291556	-0.16512045
7	0x3db09cd8	0.086236656
8	0x3dd7a09f	0.10528683
9	0xbd1c8776	-0.038215123
10	0xbd2671cd	-0.040635873
11	0xbcd6ebdc	-0.026235513
12	0x3df3a4da	0.11896677
13	0xbe0496d4	-0.12948161
14	0xbdf39864	-0.118943006
15	0xbdcabd5a	-0.09899397
16	0xbdefb23b	-0.11703917
17	0xbd8aafec	-0.06771836
18	0x3ba5537f	0.005045354
19	0xbcfe160a	-0.031016368
20	0xbe16b4cb	-0.14717405
21	0xbe0961c0	-0.13416195
22	0xbe22f648	-0.15914261
23	0xbd64185b	-0.05568729
24	0xbcbd0a7c	-0.023076288
25	0x3dcb917b	0.099398576
26	0xbe060fcc	-0.13091964
27	0x3e03be45	0.12865551
28	0xbe036291	-0.12830569
29	0xbddbe0d2	-0.107362404
30	0x3ddcd714	0.107832104
31	0x3df19960	0.11796832
32	0xbdef2bb8	-0.116782606
33	0xbe0fbcdf	-0.14036892
34	0x3dbc2837	0.09187358
35	0xbde1cc83	-0.11025336
36	0xbd3fe26d	-0.046846796
37	0x3d535502	0.05159474
38	0x3e81cf21	0.2535334
39	0xbcc38df7	-0.023871405
40	0xbd92c3f1	-0.07166279
41	0xbe02cad7	-0.1277269

fc2.weight f4 [20, 42]
0	0xbe56bfba	-0.20971575
1	0x3e57cf25	0.21075113
2	0x3e0af854	0.13571292
3	0xbe91fa38	-0.28511214
4	0xbde30c63	-0.11086347
5	0x3dccb786	0.09995942
6	0x3babb557	0.0052401233
7	0xbdd391c1	-0.10330535
8	0xbdddc182	-0.10827924
9	0xbccb43d8	-0.024812624
10	0xbde293c1	-0.11063338
11	0xbd70ac93	-0.05875833
12	0xbe3a5787	-0.18197452
13	0xbdc71264	-0.097203046
14	0x3de7c05c	0.113159865
15	0xbdd1759c	-0.1022751
16	0xbbb6ce10	-0.005578764
17	0x3ca08eb5	0.019599298
18	0xbe1ac1c0	-0.15112972
19	0x3e388fe1	0.18023635
20	0x3c992ed4	0.018699087
21	0xbd615e62	-0.05502165
22	0xbab8e49f	-0.001410622
23	0xbdcf6f43	-0.10128643
24	0xbe8351df	-0.256484
25	0x3d334f28	0.04377666
26	0xbe594790	-0.21218705
27	0x3ca4d27c	0.020119898
28	0x3e7c1677	0.24617945
29	0xbe58d4ea	-0.2117497
30	0xbe0690d3	-0.13141184
31	0xbd48c6bd	-0.049017657
32	0xbdcfa00c	-0.101379484
33	0xbe16d38d	-0.14729138
34	0xbdebc103	-0.115114234
35	0xbdb4fa6c	-0.08836827
36	0xbe53019e	-0.20606086
37	0xbe48fbc8	-0.19627297
38	0xbdd6e234	-0.104923636
39	0xbe564c59	-0.20927562
40	0xbe222ab6	-0.15836605
41	0xbde7a4f2	-0.11310758
42	0xbdcf76aa	-0.10130055
43	0xbcfc0759	-0.030765222
44	0x3c638267	0.013886071
45	0xbdf90f8d	-0.12161169
46	0x399da1c2	0.00030065892
47	0x3e138053	0.1440442
48	0x37dd9123	2.6412838e-05
49	0xbe0eaa41	-0.13932134
50	0xbe3b9226	-0.1831747
51	0xbe39665a	-0.1810545
52	0xbe1e3044	-0.154481
53	0xbdd71e41	-0.10503817
54	0xbd043453	-0.032276463
55	0xbe43ff04	-0.1914025
56	0xba3b1970	-0.00071372744
57	0xbe604da1	-0.21904613
58	0x3d8de5bc	0.06928584
59	0xbe1d1485	-0.15339859
60	0xbd1472d0	-0.036242306
61	0xbd52eea4	-0.051497117
62	0x3c413343	0.011792007
63	0x3e56957b	0.2095546
64	0xbe4d7d49	-0.20067324
65	0xbda9dc3a	-0.08293958
66	0xbe5f1785	-0.21786316
67	0xbe455453	-0.19270448
68	0xbd907958	-0.070543945
69	0xbe4dfd33	-0.20116119
70	0xbd0a846d	-0.033817697
71	0x3e0dffee	0.1386716
72	0xbd80e1f1	-0.06293095
73	0xbe0de37a	-0.13856307
74	0xbe2dc5ed	-0.16970034
75	0x3e7fb18f	0.24970077
76	0xba87279d	-0.0010311488
77	0x3e88b6dc	0.2670201
78	0x3c554b25	0.013018404
79	0xbdb48684	-0.08814719
80	0xbe648566	-0.22316512
81	0xbe4ae466	-0.1981369
82	0xbc2b9ad1	-0.010473923
83	0x3d822fb4	0.06356755
84	0xbe66be9b	-0.22533648
85	0x3e416808	0.18887341
86	0x3dbe9b33	0.09306946
87	0x3da3bd22	0.079950586
88	0xbef54965	-0.47907558
89	0x3e2a3711	0.16622569
90	0x3d494d0a	0.049145736
91	0xba8d8969	-0.0010798398
92	0x3d90fe99	0.07079811
93	0xbe4e8c2a	-0.20170656
94	0x3ea5769b	0.3231705
95	0xbeb1a9a1	-0.3469973
96	0xbe64425b	-0.22290938
97	0x3c588f9c	0.013217833
98	0x3de6c334	0.11267701
99	0x3c80e7f6	0.015735608
100	0xbdc3650d	-0.09540758
101	0x3e9070c1	0.28211024
102	0xbe2a780d	-0.16647358
103	0x3ea7dd84	0.3278619
104	0x3e148dfc	0.14507288
105	0x3c908c06	0.017644893
106	0x3e6854e3	0.22688632
107	0x3e1b0f35	0.1514252
108	0x3c58d249	0.01323373
109	0xbcd2a3ec	-0.02571293
110	0x3d90fdef	0.07079684
111	0xbd3a297d	-0.045449723
112	0x3d09dc18	0.033657163
113	0xbded6b89	-0.11592776
114	0x3e1753af	0.14778017
115	0x3e186ad4	0.14884502
116	0x3e983fa7	0.29736063
117	0xbc2cea53	-0.010553914
118	0xbe1f6ae3	-0.15568118
119	0x3ca3bde3	0.019988006
120	0x3ef2a823	0.47393903
121	0xbd3fad15	-0.046795923
122	0x3e4d0d72	0.2002466
123	0x3ea08fbb	0.31359658
124	0xbd91428d	-0.07092772
125	0x3da9ceb3	0.08291378
126	0xbe6f4575	-0.2336634
127	0x3e47e633	0.19521408
128	0xbd885050	-0.066559434
129	0xbe5cad66	-0.21550521
130	0xbdb45d44	-0.088068515
131	0xbc916410	-0.017747909
132	0xbddc9ea6	-0.10772447
133	0xbe5dab7d	-0.21647449
134	0xbe7912fd	-0.2432365
135	0xbdf14d20	-0.117822886
136	0xbc441efe	-0.01197028
137	0xbe353103	-0.17694478
138	0xbd7a1293	-0.06105287
139	0xbe029d07	-0.12755214
140	0xbcb37dbc	-0.02191054
141	0xbc26d394	-0.01018228
142	0x3e011671	0.12606217
143	0xbda22e0a	-0.079189375
144	0xbe538e57	-0.20659767
145	0x3d5cf01c	0.053939924
146	0x3e83174c	0.25603712
147	0xbc288d0e	-0.010287536
148	0x3bc02a6b	0.0058644316
149	0x3c0c20ef	0.008552774
150	0xbe8b2487	-0.27176306
151	0xbdf1f6dc	-0.11814663
152	0xbe4f3a6f	-0.20237134
153	0x3d5cc067	0.053894427
154	0x3e28ddab	0.1649081
155	0xbb2dcb79	-0.0026518984
156	0xbda1b534	-0.0789589
157	0xbd30672f	-0.043067154
158	0xbdce9720	-0.100874186
159	0x3da2487c	0.079239815
160	0x3d247a02	0.04015542
161	0xbe06edd0	-0.13176656
162	0xbcbb007f	-0.022827385
163	0xbd8c695d	-0.06856034
164	0xbe78c752	-0.24294785
165	0xbdb1d1b0	-0.08682573
166	0x3ca7fe24	0.020506926
167	0xbdc5d8d0	-0.09660494
168	0x3e947d70	0.2900195
169	0x3cd11ba2	0.025525872
170	0x3d187f5e	0.03723084
171	0x3dd13848	0.10215813
172	0xbf189bd5	-0.5961278
173	0x3d0ba2bd	0.034090746
174	0x3e32d3d2	0.17463616
175	0x3da2dc32	0.07952155
176	0xbd92d327	-0.0716918
177	0x3e06aa1e	0.13150832
178	0x3dd5bc25	0.10436276
179	0xbe393c76	-0.1808947
180	0x3de16467	0.11005478
181	0x3e5723a5	0.21009691
182	0xbdb47b86	-0.08812623
183	0xbe6e756e	-0.23286983
184	0xbe8c7928	-0.27436185
185	0x3d996131	0.07489241
186	0x3d90c143	0.07068112
187	0x3df12901	0.11775399
188	0x3e3dc06f	0.18530439
189	0x3e4a8655	0.19777806
190	0x3a88d03c	0.0010438035
191	0x3d519509	0.05116752
192	0x3cfaae92	0.03060082
193	0x3dd9b358	0.1062991
194	0xbd204437	-0.039127555
195	0x3de8d5d2	0.11368908
196	0x3ce59886	0.02802683
197	0x3ca247e4	0.01980967
198	0x3e5af64e	0.2138302
199	0x3de4ca2f	0.11171376
200	0x3d71685e	0.058937423
201	0xbe742af7	-0.23844515
202	0xbeee08c4	-0.46491063
203	0x3a20b182	0.00061299664
204	0x3e77773f	0.24166583
205	0x3e713ee1	0.23559143
206	0x3d02045d	0.031742442
207	0x3cc29c51	0.023756178
208	0x3bd67219	0.006544363
209	0x3dac026c	0.083988994
210	0xbe082160	-0.13293982
211	0xbe1166b0	-0.14199328
212	0xbdb3920e	-0.08768092
213	0xbdc1493a	-0.09437795
214	0xbe0559bd	-0.13022514
215	0xbda0c7d8	-0.07850617
216	0xbd8d1b1c	-0.06889936
217	0xbdb6f7e0	-0.08933997
218	0xbd99c52b	-0.0750831
219	0xbd2b1fb4	-0.04177828
220	0xbccece58	-0.025244877
221	0xbe44f523	-0.19234137
222	0xbe224bf2	-0.15849283
223	0x3c695a70	0.014242753
224	0xbdc8b61f	-0.09800362
225	0x3d531810	0.05153662
226	0x3d2628d0	0.040566266
227	0xbc288520	-0.010285646
228	0xbd718860	-0.058967948
229	0x3db6b13e	0.08920525
230	0xbd9003ec	-0.07031998
231	0x3d1cc7c4	0.03827645
232	0xbd74c2f2	-0.059756227
233	0x3d5ebb70	0.054377973
234	0xbd88c27a	-0.066777185
235	0xbde06950	-0.10957587
236	0xbc6df820	-0.01452449
237	0xbe12d59e	-0.14339301
238	0x3e0c88f3	0.13724117
239	0xbcd8f108	-0.02648212
240	0xbe176b19	-0.14786948
241	0x3d896902	0.06709482
242	0x3e0d2b17	0.13785969
243	0xbddf675a	-0.109083846
244	0xbe172a13	-0.14762144
245	0x3db9431e	0.09046005
246	0x3d5f9a60	0.054590583
247	0x3d762768	0.060096174
248	0xbdd14e89	-0.102200575
249	0xbdffb30e	-0.12485324
250	0xbd441ef4	-0.04788108
251	0x3dd16ea2	0.1022618
252	0x3d805773	0.062666796
253	0x3d8d69c8	0.06904942
254	0xbdd93630	-0.106060386
255	0x3d6cd9b1	0.057824794

fc2.bias f4 [20]
0	0xbe1f94e4	-0.15584141
1	0x3cf3af0a	0.029746551
2	0x3e4b1c33	0.19834976
3	0xbe0f2c07	-0.13981639
4	0x3dee4429	0.11634094
5	0xbe71a101	-0.23596574
6	0x3d130207	0.035890605
7	0x3e4d6187	0.20056735
8	0xbe859679	-0.26091364
9	0x3d096e1f	0.033552285
10	0xbe419bf5	-0.18907149
11	0x3da831c7	0.08212619
12	0xbe2f9be2	-0.17149308
13	0xbdc2a41f	-0.0950396
14	0xbe50cdf8	-0.20391071
15	0xbe59032c	-0.21192616
16	0xbe4655f9	-0.19368733
17	0xbe786403	-0.24256901
18	0xbdfdf65a	-0.124005035
19	0xbe6aa5a4	-0.2291475

fc3.weight f4 [7, 20]
0	0xbdb063c7	-0.08612781
1	0xbd1c82a5	-0.03821053
2	0xbe228c2f	-0.15873788
3	0xbd91d03a	-0.07119794
4	0x3e0fa25d	0.1402678
5	0x3c940508	0.018068805
6	0xbd7677f3	-0.060172986
7	0x3e697515	0.2279857
8	0x3ddaec34	0.106895834
9	0xbcf024c2	-0.029314402
10	0x3dcf337d	0.101172425
11	0xbc4d329c	-0.012524273
12	0x3ebe746f	0.37198207
13	0x3d378ff1	0.044815008
14	0x3e1436be	0.14474007
15	0x3d39d5b2	0.04536981
16	0x3c402f04	0.011729959
17	0x3e7f0c2a	0.24906984
18	0xbe8ac593	-0.27103862
19	0x3d5d5cae	0.054043464
20	0x3d91bd3a	0.0711617
21	0x3e19ba17	0.15012394
22	0x3e7ee47d	0.24891849
23	0xbb2413f3	-0.0025036305
24	0x3e8187e2	0.25298983
25	0xbdda07eb	-0.106460415
26	0x3ea19f6b	0.3156694
27	0x3e394278	0.18091762
28	0x3c8745a8	0.016512707
29	0x3e678c67	0.22612153
30	0x3e4eca17	0.20194279
31	0xbe76b19d	-0.24091192
32	0x3d35ed5b	0.044415813
33	0x3df453fe	0.11930083
34	0xbd66abc3	-0.05631615
35	0x3b8efcb1	0.0043636193
36	0x3d168391	0.036746565
37	0x3e759067	0.23980866
38	0xbda84e87	-0.08218103
39	0xbdc2c4db	-0.095102035
40	0xbe05443f	-0.13014315
41	0x3e898de0	0.26866055
42	0x3e0c6603	0.1371079
43	0xbd980487	-0.074227385
44	0x3d0c97b8	0.034324378
45	0xbe33a9a2	-0.17545179
46	0xbd9ddf81	-0.077086456
47	0x3e18a17c	0.14905351
48	0x3dbf83ac	0.09351286
49	0x3ebc216c	0.3674425
50	0x3de20515	0.110361256
51	0xbe3103ed	-0.17286654
52	0xbc38da79	-0.011282557
53	0x3cce6269	0.02519341
54	0x3dd9ca9a	0.10634346
55	0xbc71c3cb	-0.014756153
56	0xbd9d142c	-0.07669863
57	0xbdb766d6	-0.08955161
58	0xbe18547e	-0.14875981
59	0xbd586be4	-0.052837268
60	0x3e947e1a	0.29002458
61	0x3e124e3a	0.14287654
62	0x3ecc317a	0.39881498
63	0x3e71030b	0.23536317
64	0x3e789a90	0.24277711
65	0xbdb142f2	-0.08655347
66	0x3e96dc41	0.29464915
67	0x3e8ee35f	0.27907845
68	0x3dd79811	0.10527051
69	0x3bea7128	0.0071546026
70	0x3c815536	0.015787702
71	0xbe004271	-0.12525345
72	0xbd36e3bc	-0.04465078
73	0x3d4f7e9d	0.050657857
74	0x3ea0a839	0.31378344
75	0x3d860a63	0.0654495
76	0x3e926440	0.2859211
77	0x3e14e78e	0.14541456
78	0xbe940523	-0.2891017
79	0xbe6e921a	-0.23297921
80	0x3ea49c7b	0.32150635
81	0x3dda1329	0.10648186
82	0x3e4421cd	0.19153519
83	0x3ea498f6	0.3214795
84	0x3e8d5573	0.27604255
85	0x3dc7e80e	0.09761058
86	0x3ec3e6ff	0.38262174
87	0x3ea61508	0.3243792
88	0xbd452c38	-0.048137873
89	0xbe67b516	-0.22627673
90	0x3de4bfe6	0.11169414
91	0xbe18c8a7	-0.14920293
92	0x3dbde0b8	0.09271377
93	0x3eac6985	0.33674255
94	0x3e9cf492	0.30655342
95	0x3eb75dd5	0.35813776
96	0x3e6250d1	0.22101142
97	0x3e05a8d9	0.13052692
98	0xbe8006ca	-0.2500518
99	0x3e87d547	0.26529905
100	0x3d063ea2	0.032774575
101	0xbde4246c	-0.111397594
102	0x3e8abdd8	0.27097964
103	0x3da9c850	0.0829016
104	0x3e907f78	0.2822225
105	0xbdfc96c4	-0.12333444
106	0xbdee99ba	-0.11650415
107	0x3e4f7db6	0.20262799
108	0x3e648370	0.22315764
109	0x3d896786	0.06709199
110	0xbd83314c	-0.06405887
111	0xbe0674ae	-0.13130447
112	0x3e8ee7f4	0.2791134
113	0x3e4a8741	0.19778158
114	0x3e60abd7	0.21940552
115	0x3dfa8713	0.122327946
116	0xbd6ee5e9	-0.05832473
117	0xbdd95af9	-0.10613055
118	0xbe3d34b0	-0.1847713
119	0xbe734eec	-0.23760575
120	0x3e4f998e	0.2027342
121	0xbdd9582c	-0.106125206
122	0x3e89133d	0.2677249
123	0xbd29fe97	-0.04150256
124	0x3e0c1330	0.13679194
125	0xbe37358e	-0.17891523
126	0x3cdf5ac2	0.027264956
127	0x3e3d8704	0.18508536
128	0xbd261670	-0.04054874
129	0xbd41a7f2	-0.047279306
130	0x3d97fc91	0.0742122
131	0xbf057bde	-0.5214213
132	0x3d95b69a	0.07310219
133	0x3ce9ae8c	0.028525613
134	0x3e28ee32	0.16497114
135	0x3dca9205	0.09891132
136	0x3d9cea71	0.07661904
137	0x3df349ca	0.118793085
138	0xbde9dc1d	-0.114189364
139	0xbde4063b	-0.11134001

fc3.bias f4 [7]
0	0xbe81379e	-0.25237745
1	0xbe22c4d6	-0.158954
2	0xbe2f8a3a	-0.17142573
3	0xbd65dc20	-0.05611813
4	0xbd9d2fe4	-0.0767515
5	0xbe486921	-0.19571353
6	0x3da3517e	0.07974528
