q_conv_network.pth (torch, 29588 bytes, 8 tensors)

weight f4 [10, 1, 4, 4]
0	0xbdcc52b3	-0.09976711
1	0xbe8a43bd	-0.27004805
2	0xbdd61e0d	-0.104549505
3	0xbcd75104	-0.026283748
4	0xbd4ca0e7	-0.049958136
5	0xbe8fab29	-0.28060272
6	0x3e9f81f5	0.31153837
7	0x3e0cf6f4	0.1376608
8	0x3e17e3b0	0.1483295
9	0xbe93eac1	-0.2889004
10	0x3edab9f3	0.42719993
11	0x3e398da6	0.18120441
12	0xbdabe155	-0.08392588
13	0xbdca711c	-0.09884855
14	0x3eeb97cb	0.46014246
15	0x3cfb9164	0.030708976
16	0x3d5186c5	0.051153917
17	0xbe54bae8	-0.20774424
18	0xbe794453	-0.2434247
19	0x3d072df3	0.033002805
20	0xbeb6d438	-0.35708785
21	0xbe1f2dfd	-0.15544887
22	0x3e0d436a	0.13795248
23	0xbf1d4380	-0.6143112
24	0x3e02fe02	0.12792209
25	0xbe70cc34	-0.23515397
26	0xbeb449e2	-0.35212618
27	0xbf0e1399	-0.55498654
28	0x3c39dc1c	0.011343982
29	0xbe260e05	-0.16216286
30	0xbe51593c	-0.20444196
31	0xbeb4c47a	-0.3530615
32	0x3baff2f6	0.0053695394
33	0x3e49d8e4	0.19711643
34	0xbede4b14	-0.43416655
35	0xbe4f8e5d	-0.20269151
36	0x3e952a67	0.29133913
37	0x3eb2571f	0.34832093
38	0xbec734e1	-0.3890753
39	0x3e0b0041	0.13574316
40	0x3e7cee58	0.24700296
41	0x3ec27772	0.37981755
42	0xbe7ace53	-0.24492769
43	0xbdb9055f	-0.090342276
44	0x3ead28be	0.33820146
45	0x3e810d81	0.25205615
46	0xbe8edea8	-0.27904248
47	0x3e636b7d	0.22208972
48	0xbc1692af	-0.0091902455
49	0xbebeb225	-0.37245288
50	0x3e866070	0.2624545
51	0xbba257f9	-0.004954335
52	0xbe3c79c8	-0.18405831
53	0x3ed06efb	0.4070967
54	0x3d766909	0.060158763
55	0x3e9dc9ca	0.30818015
56	0xbda8b105	-0.08236889
57	0x3e2d7c28	0.16941893
58	0xbd528278	-0.051393956
59	0x3ee70f59	0.45128897
60	0x3cb3863f	0.0219146
61	0xbebc2c97	-0.3675277
62	0xbe3b366f	-0.18282484
63	0x3eb7b62a	0.35881168
64	0x3e35db66	0.17759475
65	0x3e0af4a8	0.13569891
66	0x3eba5173	0.36390266
67	0x3ea7dd24	0.32785904
68	0xbdd2c88e	-0.10292159
69	0xbe07ef0b	-0.13274781
70	0xbed005b2	-0.40629345
71	0x3e176553	0.14784746
72	0xbd8139ba	-0.063098386
73	0xbbf68c26	-0.007524031
74	0x3e27dceb	0.16392867
75	0x3d5597eb	0.052146833
76	0x3cb4e948	0.022083893
77	0x3e2cb7b8	0.16866958
78	0x3dac906c	0.08425984
79	0x3ad99d23	0.0016602617
80	0x3deac123	0.11462619
81	0xbdc99942	-0.09843685
82	0xbdc964e6	-0.09833698
83	0xbdd4ba3f	-0.10387086
84	0xbe56a871	-0.20962693
85	0x3efbd8f3	0.49188957
86	0xbe4fe4d0	-0.20302129
87	0xbe1b1008	-0.15142834
88	0x3e6b2c3a	0.2296609
89	0x3eb88b27	0.36043665
90	0xbca8168a	-0.02051856
91	0x3db278b3	0.08714428
92	0xbea4e81b	-0.32208332
93	0xbee089bb	-0.4385508
94	0x3c305100	0.010761499
95	0xbe49984a	-0.19687
96	0x3d3396ad	0.043844867
97	0xbec4e903	-0.38459024
98	0xbe04f768	-0.12985003
99	0xbf0d0efa	-0.5510098
100	0xbd98a0fc	-0.0745258
101	0xbebcb306	-0.36855334
102	0xbe850515	-0.2598044
103	0xbcc75546	-0.024332654
104	0x3e84e438	0.25955367
105	0xbe5702d7	-0.20997177
106	0xbe20e376	-0.1571177
107	0xbeb5199a	-0.35371095
108	0x3ca9db3a	0.020734418
109	0xbdd086e9	-0.10181982
110	0xbe2bb139	-0.16766824
111	0x3eaed637	0.34147808
112	0xbee306de	-0.44341177
113	0xbe2c8445	-0.16847332
114	0xbdd97a27	-0.10619002
115	0xbec8b79f	-0.39202592
116	0x3de143dc	0.10999271
117	0xbd120f59	-0.035659168
118	0x3e0548a9	0.13015999
119	0xbde3d6f5	-0.11124984
120	0x3d932bdb	0.07186099
121	0xbe062eeb	-0.13103835
122	0x3dfecf3c	0.124418706
123	0xbe2867fc	-0.16445917
124	0x3d51eb13	0.051249575
125	0xbeae0e82	-0.33995444
126	0x3e97864f	0.29594657
127	0xbec861cc	-0.39137113
128	0x3e7a5ca7	0.24449407
129	0x3e09781e	0.13424727
130	0xbe136c47	-0.14396773
131	0xbe24b92a	-0.1608626
132	0xbe856f06	-0.26061267
133	0xbe10bc51	-0.14134337
134	0xbeccd337	-0.40004894
135	0xbf055155	-0.5207723
136	0xbe77550f	-0.24153541
137	0xbe836df5	-0.25669828
138	0xbdb53db5	-0.0884966
139	0xbe9b1bac	-0.3029455
140	0xbe2a6d0c	-0.1664316
141	0xbe914f3f	-0.28380772
142	0xbe91b0eb	-0.2845529
143	0x3e7f44d5	0.24928601
144	0x3dc71dfb	0.09722515
145	0x3dbe9bc5	0.093070544
146	0x3d54d826	0.051963948
147	0x3d7afb5b	0.061274868
148	0x3e4421ec	0.19153565
149	0x3e60711c	0.21918148
150	0x3e11159c	0.141684
151	0x3e3cf543	0.18452935
152	0x3f364c88	0.7121053
153	0x3e31c851	0.17361571
154	0xbd82f92f	-0.06395184
155	0xbbca1d2d	-0.006168029
156	0x3f29f26f	0.6638555
157	0xbd8984af	-0.067147605
158	0x3c468f57	0.012119136
159	0xbee1ed1b	-0.4412621

bias f4 [10]
0	0xbc99be08	-0.018767372
1	0xbe574a63	-0.2102447
2	0x3e8a6891	0.27032903
3	0x3cf3e7a8	0.029773548
4	0x3e8df34a	0.27724677
5	0x3e5a8c97	0.21342693
6	0xbe54792f	-0.20749353
7	0x3d49ac1f	0.049236413
8	0x3de08b4a	0.10964067
9	0xbc986b40	-0.018605828

weight f4 [42, 120]
0	0xbe607d56	-0.21922812
1	0xbe0a687b	-0.13516419
2	0xbd188a7f	-0.037241455
3	0xbd824cb9	-0.0636229
4	0xbe09dd0d	-0.1346323
5	0xbc779114	-0.015110273
6	0xbe9a51a8	-0.30140424
7	0xbce8639f	-0.028367816
8	0xbcbc0129	-0.022949772
9	0xbe20586f	-0.15658735
10	0xbe4f5f80	-0.20251274
11	0x3c26f2a6	0.010189688
12	0x3c452d7c	0.01203477
13	0x3d6ca0ab	0.057770412
14	0xbe04db1b	-0.12974207
15	0xbe89eb62	-0.26937395
16	0x3d3faefc	0.046797737
17	0x3db93a46	0.09044318
18	0x3d1a0b91	0.037608687
19	0xbc1c1d03	-0.009528401
20	0x3e24e903	0.16104512
21	0x3ced1119	0.028938817
22	0x3d1e66ad	0.038672138
23	0xbc83d147	-0.016091002
24	0x3d48132a	0.0488464
25	0xbe323d4a	-0.17406192
26	0x3d60037b	0.05469082
27	0x3cb4aa02	0.022053722
28	0x3df6eb4c	0.12056598
29	0xbd0bf41e	-0.034168355
30	0xbd18a9d3	-0.037271332
31	0xbd11b2a0	-0.03557074
32	0x3d92f478	0.07175535
33	0xbc4a7bb7	-0.0123585975
34	0x3c9e7e4f	0.019347338
35	0xbdaca75a	-0.08430357
36	0xbc8f6f8b	-0.017509243
37	0xbdfce309	-0.12347991
38	0x3d01f294	0.03172548
39	0x3ec7da1b	0.3903359
40	0xbdd9c904	-0.10634044
41	0x3cc7489b	0.024326613
42	0xbd0ca1ce	-0.034333996
43	0x3d81580f	0.06315624
44	0x3e092e3b	0.13396542
45	0xbd81cb6f	-0.0633763
46	0x3d2062a4	0.03915657
47	0x3e4ee090	0.20202851
48	0x3dbd2c5c	0.092369765
49	0x3d0e92a6	0.034807824
50	0x3cf48021	0.029846253
51	0xbe24707c	-0.16058534
52	0xbddb55a8	-0.10709697
53	0x3d448539	0.047978614
54	0xbdcd5c6b	-0.10027393
55	0xbc6708b9	-0.014101201
56	0xbd348431	-0.04407138
57	0x3d38f052	0.045151062
58	0x3e29473f	0.16531084
59	0x3d234872	0.03986401
60	0x3cdf8b82	0.027288202
61	0x3de6eb64	0.11275366
62	0x3c0263f2	0.007958399
63	0x3b0381f6	0.0020066476
64	0x3e022483	0.1270924
65	0xbe2d4398	-0.16920316
66	0xbcb14f7a	-0.021644343
67	0xbddeab4d	-0.10872517
68	0x3e21d6dc	0.15804619
69	0x3d4739f4	0.048639253
70	0x3e0dd27e	0.13849828
71	0xbdbe3b57	-0.09288662
72	0xbdeb3414	-0.114845425
73	0xbd6efc62	-0.05834616
74	0xbe151554	-0.14558917
75	0x3e1972d0	0.14985204
76	0x3db43bfb	0.08800503
77	0xbc234898	-0.009966038
78	0xbdcdb512	-0.10044302
79	0xbdaeaac7	-0.08528667
80	0xbdce2c7c	-0.100670785
81	0xbe0a9762	-0.1353431
82	0xbdc9da57	-0.09856098
83	0x3e0d4788	0.13796818
84	0xbd9476e5	-0.0724924
85	0xbcc36dd0	-0.023856074
86	0xbe6b01d7	-0.2294992
87	0xbe9ec259	-0.3100765
88	0x3d1fccac	0.03901355
89	0x3d991626	0.074749276
90	0xbd9f4b37	-0.07778018
91	0xbebee62e	-0.37284988
92	0xbbbf6b83	-0.005841674
93	0x3ba2b8e8	0.00496589
94	0xbc9a6ecb	-0.018851658
95	0xbeea25e8	-0.45732045
96	0x3da76e77	0.08175366
97	0x3c0425d3	0.008065659
98	0xbb88245a	-0.004154724
99	0x3e223bbd	0.15843101
100	0x3c422a74	0.011850942
101	0x3abd19cb	0.0014427243
102	0x3d8e141a	0.06937428
103	0xbc56cdad	-0.01311056
104	0x3dc84870	0.09779441
105	0xbdbe3c35	-0.09288827
106	0x3dd5e338	0.10443729
107	0xbdde1abc	-0.10844943
108	0xbec252da	-0.37953836
109	0x3e919015	0.28430238
110	0xbc93f37b	-0.018060436
111	0xbd099183	-0.033586036
112	0xbe8984e4	-0.268592
113	0xbb9a90f1	-0.0047169854
114	0xbe13f0ea	-0.1444737
115	0xbdf32a4f	-0.11873304
116	0xbc4ffe55	-0.012694915
117	0x3d97a46b	0.07404407
118	0xbc4f89fe	-0.012667177
119	0xbd0444dd	-0.032292236
120	0xbd807cb9	-0.06273789
121	0x3c374725	0.011186396
122	0xbcad6766	-0.021167468
123	0x3db70692	0.089368
124	0x3dc19f22	0.0945418
125	0xbea6eb2c	-0.32601297
126	0xbe25c2b6	-0.16187558
127	0x3c7cad48	0.015422173
128	0xbd8ad275	-0.06778423
129	0xbe8eb2fb	-0.27870926
130	0x3e373ce7	0.17894326
131	0xbca07283	-0.019585853
132	0x3dbe2125	0.092836656
133	0xbe86a132	-0.26294857
134	0x3e664b4d	0.22489662
135	0x3dba6d83	0.09102919
136	0xbc5b6f32	-0.01339321
137	0xbd8478e8	-0.064683735
138	0x3d876f30	0.06613004
139	0xbe11cdf7	-0.14238726
140	0xbe0113b5	-0.12605174
141	0x3d26ca3a	0.040720202
142	0xbe4ccf91	-0.20001055
143	0xbe844f5d	-0.258418
144	0xbe2fe653	-0.17177705
145	0xbd8f7679	-0.07005019
146	0x3dd08700	0.10181999
147	0xbd591c43	-0.053005468
148	0xbde17580	-0.110087395
149	0x3bab4ce9	0.0052276743
150	0x3d5aa57c	0.053380474
151	0xbe8846d9	-0.26616552
152	0x3d12fe23	0.035886895
153	0x3d0a8adc	0.033823833
154	0xbd7c9278	-0.06166312
155	0xbe118794	-0.14211875
156	0x3d8851d0	0.066562295
157	0xbe198a0e	-0.1499407
158	0xbe383307	-0.17988215
159	0x3e4b4ad2	0.1985276
160	0xbe14e665	-0.14541014
161	0xbcc9b433	-0.024622058
162	0xbc7dd5c2	-0.015492858
163	0x3d3b4baf	0.045726474
164	0xbedc68c7	-0.4304869
165	0x3ddf0d4c	0.10891208
166	0xbdfece9f	-0.124417536
167	0xbe727966	-0.23679122
168	0x3d16c51e	0.03680908
169	0xbe3dff6b	-0.18554465
170	0xbdf7468e	-0.12074004
171	0xbe4b4067	-0.19848786
172	0x3b2df6ef	0.002654489
173	0x3c03481a	0.008012796
174	0x3d8ee339	0.06976933
175	0xb837df50	-4.3838576e-05
176	0xbe535fa9	-0.2064196
177	0xbda6c90f	-0.08143818
178	0xbdc9a201	-0.09845353
179	0xbcc13ac1	-0.023587586
180	0xbafe4cf3	-0.0019401595
181	0xbd2e4ac8	-0.042551786
182	0xbe35a1cc	-0.17737502
183	0xbd37b8cc	-0.04485397
184	0x3dc2bef1	0.095090754
185	0xbe9787bb	-0.29595742
186	0xbdd2ce50	-0.10293257
187	0x3c28a40e	0.01029302
188	0xbe1014a9	-0.14070381
189	0xbca6e814	-0.020374335
190	0x3de4c03a	0.11169477
191	0xbe537d9c	-0.20653385
192	0x3d7d67ff	0.061866757
193	0x3e7c34f5	0.24629577
194	0xbe8e506b	-0.2779573
195	0x3e162754	0.1466344
196	0x3e0bd079	0.13653745
197	0xbe473a03	-0.19455723
198	0xbdbf8d37	-0.093531065
199	0xbd8a682d	-0.06758151
200	0xbe0c3ef3	-0.13695888
201	0x3debba4b	0.11510142
202	0xbeb1e8fe	-0.3474807
203	0xbe161af1	-0.14658715
204	0x3dc37c03	0.09545138
205	0x3de56b70	0.11202133
206	0xbe6099ee	-0.2193372
207	0x3d63cf97	0.055617895
208	0x3dba07b1	0.09083498
209	0xbe24003f	-0.16015719
210	0xbe0286fa	-0.12746802
211	0xbd62ac27	-0.05533996
212	0xbd031dfc	-0.032011017
213	0xbdde88cb	-0.10865935
214	0x3e2c8df4	0.16851026
215	0xbe86306d	-0.2620882
216	0xbd8674c1	-0.06565238
217	0x3cc68175	0.024231652
218	0x3d02f6fe	0.03197383
219	0x3c510349	0.012757131
220	0xbd07987d	-0.03310441
221	0x3c95a889	0.01826884
222	0xbe3f948f	-0.18709014
223	0x3cea6faf	0.028617708
224	0xbe1f0f20	-0.15533113
225	0x3cfd2333	0.030900573
226	0xbddc5132	-0.10757674
227	0xbea3d6e0	-0.31999874
228	0x3d840200	0.06445694
229	0xbe439222	-0.19098714
230	0xbdfc7bdf	-0.12328314
231	0xbe61d3d1	-0.22053458
232	0xbcc12bbd	-0.023580426
233	0xbe8335fd	-0.25627127
234	0x3dfa97eb	0.12236007
235	0xbe976639	-0.29570177
236	0xbdd9d0e9	-0.106355496
237	0xbca94520	-0.020662844
238	0x3cbed0e4	0.023292966
239	0xbe85091a	-0.25983506
240	0xbd421c58	-0.047390312
241	0x3ce40f40	0.027839303
242	0x3dcd3a75	0.100209154
243	0x3d11d243	0.03560091
244	0xbb3845f7	-0.0028117874
245	0xbe255c5b	-0.16148512
246	0x3e37d5f1	0.17952706
247	0xbe2a5a3e	-0.16635987
248	0xbd76eb0c	-0.060282752
249	0xbd0650d4	-0.032791927
250	0x3ddaa549	0.10676057
251	0xbd85039c	-0.06494829
252	0xbdd5405f	-0.104126684
253	0xbdf5246e	-0.11969839
254	0xbc96c53a	-0.018404592
255	0xbe65f968	-0.22458422

bias f4 [42]
0	0x3ddff97d	0.10936258
1	0xbd87088d	-0.06593428
2	0x3d2dad27	0.04240146
3	0x3ddd1065	0.10794143
4	0x3c2da6bc	0.010598835
5	0x3da732e5	0.08164004
6	0xbdb30272	-0.08740701
7	0x3e15c147	0.1462451
8	0xbe0ef7f7	-0.13961779
9	0xbbde08cd	-0.0067759515
10	0x3decfddf	0.115718596
11	0xbdde2656	-0.10847156
12	0xbdc0ca06	-0.09413533
13	0xbca99f05	-0.02070571
14	0xbaec5d3d	-0.0018033158
15	0x3c5fab9a	0.013651753
16	0x3b0ca9c4	0.0021463493
17	0xbde4195b	-0.11137649
18	0xbb5d968d	-0.003381166
19	0xbe163425	-0.14668329
20	0x3d1c6c17	0.03818902
21	0xbdc23339	-0.09482426
22	0x3dae0e56	0.08498828
23	0x3cf67fee	0.030090299
24	0x3c81d7b1	0.01584992
25	0xbc937887	-0.018001808
26	0x3d20abff	0.03922653
27	0xbc625d43	-0.013816181
28	0xbe0ed96a	-0.13950124
29	0xbd29acd8	-0.041424602
30	0x3dd625c9	0.10456426
31	0x3d4ea491	0.05044991
32	0x3da8c681	0.082409866
33	0xbd24e02d	-0.040252853
34	0xbd986ed6	-0.07443015
35	0xbc91dcd4	-0.017805494
36	0xbd6b3e44	-0.057432428
37	0xbc8f109a	-0.01746397
38	0x3ded3134	0.115816504
39	0xbd43f4cd	-0.047840882
40	0xbe0e618e	-0.13904402
41	0x3b8e51be	0.0043432405

weight f4 [20, 42]
0	0xbd7c20a6	-0.061554573
1	0xbe653e8a	-0.22387138
2	0xbe223de4	-0.15843922
3	0xbd4c9908	-0.04995063
4	0xbd1efaa9	-0.038813267
5	0xbdb41300	-0.087926865
6	0x39e6ec9f	0.00044045315
7	0x3c3b9cfc	0.011451002
8	0xbc69b5bc	-0.01426452
9	0x3d445aff	0.047938343
10	0x3d8e8132	0.06958236
11	0xbe502fef	-0.20330785
12	0x3d93f49f	0.07224392
13	0x3c26abc4	0.010172788
14	0x3e062110	0.1309855
15	0xbd45ca55	-0.048288662
16	0xbdf64393	-0.120246075
17	0x3df3d1d5	0.11905257
18	0x3c876482	0.016527418
19	0xbea39846	-0.31952113
20	0xbcc51007	-0.024055494
21	0x3cafd036	0.021461587
22	0x3d969a0a	0.07353599
23	0x3e184a8d	0.14872189
24	0x3d525415	0.051349718
25	0xbe22ca4d	-0.15897484
26	0x3d5eabe2	0.05436314
27	0x3dee9055	0.11648623
28	0xbed6f54a	-0.41984016
29	0xbd98d14a	-0.07461794
30	0x3e247627	0.16060697
31	0x3d4675c7	0.048452165
32	0xbd890114	-0.06689659
33	0x3d8c8b08	0.068624556
34	0x3e80b8c1	0.25140956
35	0x3ecb3ae7	0.39693376
36	0xbe49eb3e	-0.19718644
37	0xbe818244	-0.25294697
38	0x3e4d8833	0.20071487
39	0xbdba4425	-0.09095029
40	0xbe53187e	-0.20614812
41	0x3da42f88	0.08016878
42	0x3deec562	0.116587415
43	0xbe993bf4	-0.29928553
44	0xbe47dc40	-0.19517612
45	0xbd092e41	-0.033491377
46	0xbeb361f2	-0.35035664
47	0xbe8b53d7	-0.27212402
48	0x3d8f33b5	0.06992284
49	0x3d9e666d	0.0773438
50	0xbe86892a	-0.26276523
51	0xbe4fcbf0	-0.2029264
52	0x3e6e373a	0.23263255
53	0x3dd19b99	0.10234756
54	0xbe83afd3	-0.2572008
55	0xbefc913b	-0.49329552
56	0xbe39c0ed	-0.18140002
57	0x3e8f8060	0.2802763
58	0x3e70b7db	0.23507635
59	0x3e23888f	0.15970062
60	0x3e44b0c7	0.1920806
61	0x3f04e7c2	0.51916134
62	0x3e1ab05f	0.15106343
63	0x3e16de0a	0.14733139
64	0x3d40e459	0.04709277
65	0xbef28809	-0.47369412
66	0x3ebead7a	0.37241727
67	0x3e8b59ab	0.2721685
68	0x3e5d8f36	0.21636662
69	0xbd97bc3e	-0.07408951
70	0x3e4d33b5	0.20039256
71	0x3e55b0c8	0.20868218
72	0xbc3a0c69	-0.011355498
73	0x3da73321	0.08164049
74	0xbbbf79cb	-0.0058433763
75	0x3e298851	0.16555907
76	0x3e4e8014	0.20166045
77	0x3d99e70b	0.07514771
78	0x3e7d440e	0.24732992
79	0x3e991930	0.2990203
80	0xbd2042a6	-0.03912606
81	0xbebf2427	-0.3733227
82	0x3e733915	0.23752244
83	0xbe6a471f	-0.22878693
84	0x3de7c773	0.11317339
85	0x3df9bc34	0.121941
86	0xbd591401	-0.052997593
87	0xbcc31bd0	-0.023816973
88	0x3c3f9365	0.011692856
89	0x3d90488d	0.07045088
90	0xbd5562cf	-0.052096184
91	0xbe13e7f2	-0.14443949
92	0xbe0eea13	-0.1395648
93	0xbdbce578	-0.09223455
94	0x3da5ce95	0.08096043
95	0x3d379d6e	0.04482787
96	0x3dd199b1	0.102343924
97	0x3ce1f465	0.027582357
98	0xbc8e323f	-0.017357944
99	0xbdd72e09	-0.105068274
100	0xbcc53f17	-0.024077935
101	0xbd9ddee1	-0.077085264
102	0xbd8cc2e3	-0.06873109
103	0xbd27df53	-0.040984463
104	0xbde5bd37	-0.112177305
105	0x3ca272ef	0.019830195
106	0xbe40b10d	-0.1881754
107	0xbdbced45	-0.09224943
108	0x3d0e9d71	0.034818117
109	0x3de50f1b	0.11184522
110	0xbe03c243	-0.12867074
111	0x3daf183d	0.08549545
112	0xbe01d94e	-0.12680551
113	0xbdd58cbc	-0.104272336
114	0x3b19fd76	0.0023497022
115	0x3cc06d47	0.023489607
116	0xbda81d00	-0.08208656
117	0xbe145cfe	-0.14488599
118	0x3ce29e2a	0.02766331
119	0xbdb8541a	-0.09000416
120	0xbdffa5e3	-0.12482812
121	0xbc8353ba	-0.016031135
122	0x3d178ba3	0.036998402
123	0xbd49dddc	-0.049283847
124	0xbd5f0dbb	-0.054456454
125	0xbddf4d09	-0.10903365
126	0x3e697f6e	0.22802517
127	0xbd02716d	-0.031846453
128	0x3e681b4f	0.22666667
129	0xbe1bdc83	-0.15220837
130	0x3e3aa1ae	0.18225738
131	0x3e91e686	0.28496188
132	0x3cd4440a	0.02591135
133	0x3e295478	0.16536129
134	0x3e9dad53	0.30796298
135	0x3e3bbbba	0.18333331
136	0xbe3a5919	-0.1819805
137	0xbce10678	-0.027468905
138	0x3c664e55	0.014056762
139	0x3ed12e47	0.4085562
140	0x3e6369b6	0.22208294
141	0xbed3004b	-0.4121116
142	0xbefb736d	-0.491115
143	0xbe2ec156	-0.1706594
144	0xbe911380	-0.2833519
145	0xbd913f35	-0.07092134
146	0xbec14f3e	-0.3775577
147	0xbe602558	-0.21889246
148	0xbe5a7c8e	-0.21336576
149	0x3e8a9786	0.27068728
150	0xbeac7808	-0.33685327
151	0xbe38c469	-0.18043675
152	0xbda2840c	-0.07935342
153	0xbdd3d08e	-0.10342513
154	0x3e29b0e3	0.16571383
155	0xbe0f14d3	-0.13972788
156	0x3e9211ac	0.28529108
157	0xbe67a729	-0.2262236
158	0x3e37a310	0.17933297
159	0xbdb44b1d	-0.08803389
160	0xbe476577	-0.194723
161	0x3e0c98b8	0.13730133
162	0xbe8bdc65	-0.27316585
163	0xbec94d44	-0.39316761
164	0x3e01ba8e	0.12668821
165	0x3d74537b	0.059649926
166	0xbed3cd4d	-0.4136757
167	0x3e78034a	0.24220005
168	0x3e3f580d	0.18685932
169	0xbde19e4d	-0.110165216
170	0xbe5d5304	-0.21613699
171	0x3e0a99ca	0.13535228
172	0x3e43b96a	0.19113699
173	0x3dd69c9c	0.104790896
174	0xbe29c663	-0.16579585
175	0xbe8d9023	-0.2764903
176	0x3e4c44c8	0.19948113
177	0xbed264f5	-0.4109265
178	0x3ca0a208	0.019608513
179	0xbeb47297	-0.35243675
180	0x3e30e5c0	0.17275143
181	0xbdcfeb82	-0.101523414
182	0x3ed298a6	0.41132087
183	0xbe8c1b59	-0.27364615
184	0xbc056fbc	-0.008144315
185	0xbe9680cf	-0.29395148
186	0x3d60800c	0.054809615
187	0xbe3244f7	-0.1740912
188	0xbd4ecefe	-0.050490372
189	0x3eafa49e	0.3430528
190	0xbe4967a6	-0.19668445
191	0xbd9f98bc	-0.07792804
192	0xbe94b87b	-0.29046997
193	0xbe280b27	-0.16410504
194	0x3da2abc6	0.079429194
195	0xbdd769d2	-0.105182305
196	0xbc5e8ea2	-0.013583811
197	0x3e07264f	0.13198207
198	0xbe7b1e60	-0.24523306
199	0x3dca976c	0.09892163
200	0x3d23cd8a	0.03999094
201	0xbe10c35e	-0.14137027
202	0xbd4ea6c5	-0.050452013
203	0x3da7fca0	0.08202481
204	0x3d4c9c1c	0.049953565
205	0x3c25adb4	0.010112215
206	0x3dd4ccbb	0.10390612
207	0x3de084d6	0.109628364
208	0xbc4e0d89	-0.012576469
209	0xbd81cc7e	-0.06337832
210	0x3e49f60e	0.19722769
211	0x3e24e845	0.16104229
212	0x3caa79de	0.020810064
213	0x3d354c2e	0.044262104
214	0xbeaa7bc5	-0.33297554
215	0x3e4f6507	0.20253383
216	0xbe5efd4d	-0.21776314
217	0xbe49d666	-0.19710693
218	0x3d814f43	0.06313946
219	0xbd8d8cd9	-0.0691163
220	0xbebdd3ab	-0.37075552
221	0xbe4e35dd	-0.20137735
222	0xbe492459	-0.19642772
223	0xba9c8eb4	-0.0011944384
224	0x3e61d3c1	0.22053434
225	0xbe79fb4a	-0.24412265
226	0xbdb00ee9	-0.08596594
227	0xbec89f51	-0.3918405
228	0xbdba2e05	-0.09090809
229	0xbe6a22f5	-0.22864898
230	0xbc7a07c0	-0.015260637
231	0xbe3398b2	-0.17538717
232	0x3dd2bd09	0.10289962
233	0xbd222c74	-0.039593175
234	0xbe3f8b2b	-0.18705432
235	0xbe0961d6	-0.13416228
236	0x3e049c0a	0.12950149
237	0x3d3c0de6	0.045911692
238	0x3e35fc63	0.17772059
239	0x3df6c942	0.12050106
240	0xbc8038e4	-0.015652128
241	0xbe9136b1	-0.2836204
242	0x3d3cd325	0.0460998
243	0xbe9d533e	-0.3072757
244	0xbe86032e	-0.261743
245	0x3cdba2ba	0.026810993
246	0xbe684e26	-0.22686061
247	0xbdd87643	-0.10569432
248	0x3e95f363	0.29287252
249	0xbe83e91f	-0.25763795
250	0x3df51470	0.11966789
251	0xbe7b1f3d	-0.24523635
252	0xbdb7d8bc	-0.08976886
253	0xbd3a41d5	-0.04547294
254	0xbd229aee	-0.039698534
255	0x3e25149a	0.1612114

bias f4 [20]
0	0x3e5a7081	0.2133198
1	0x3ddce2fd	0.10785482
2	0xbe18e4e1	-0.1493106
3	0x3e475f81	0.19470026
4	0xbe47a635	-0.19496997
5	0xbd338f0e	-0.0438376
6	0x3dc5a5ba	0.096507505
7	0x3d84b0bf	0.06479024
8	0xbe7806ad	-0.24221297
9	0x3d0699e0	0.03286159
10	0x3def4075	0.11682216
11	0x3db5a3d7	0.088691406
12	0x3e190e8c	0.14946955
13	0x3d95b110	0.073091626
14	0x3db73a82	0.08946706
15	0x3d098ae6	0.03357973
16	0xbe091f28	-0.13390791
17	0xbd743300	-0.05961895
18	0xbd9f1e80	-0.07769489
19	0x3ddbe610	0.1073724

weight f4 [7, 20]
0	0x3e79789e	0.24362418
1	0xbdd4e5f8	-0.103954256
2	0x3e201a7e	0.15635106
3	0x3e273eb0	0.16332507
4	0x3e2fc936	0.171666
5	0x3e31c7ed	0.17361422
6	0xbea0c4d6	-0.31400174
7	0xbe997f71	-0.29980043
8	0xbe899057	-0.26867935
9	0x3db4b6d5	0.08823935
10	0x3e2cd049	0.1687633
11	0xbe39820d	-0.18116017
12	0x3dd99db5	0.10625783
13	0x3e48053b	0.19533245
14	0xbe914830	-0.28375387
15	0x3d336b92	0.04380376
16	0x3e78a5f6	0.24282059
17	0xbd2822ad	-0.041048694
18	0xbdf568b1	-0.11982859
19	0x3e47e5d1	0.19521262
20	0x3d84c45d	0.06482766
21	0xbe9cde2d	-0.30638257
22	0xbd327066	-0.043564223
23	0x3edf8bdb	0.4366139
24	0x3dfdeb98	0.123984516
25	0x3d826064	0.06366041
26	0xbe8e0622	-0.27739054
27	0xbdc68158	-0.09692639
28	0xbe081cf1	-0.1329229
29	0x3ebbf232	0.36708218
30	0x3dbfb1b8	0.09360069
31	0x3e54511e	0.20734069
32	0xbd09f458	-0.03368029
33	0x3e1ed221	0.15509845
34	0xbdc8530d	-0.09781466
35	0x3e592b41	0.21207906
36	0xbe3b4837	-0.18289267
37	0xbdcde791	-0.100539334
38	0xbe94eb31	-0.29085687
39	0x3df4b5a3	0.11948707
40	0xbdaefc4c	-0.085442156
41	0x3e033a7b	0.12815277
42	0xbe345c5e	-0.1761336
43	0x3ede2a19	0.43391493
44	0x3e92817c	0.28614414
45	0x3e9d2862	0.30694872
46	0xbdf52058	-0.1196906
47	0xbec0ecd5	-0.37680689
48	0xbe0d0192	-0.1377013
49	0xbc30d35e	-0.010792581
50	0x3ed73511	0.42032674
51	0xbdbc9bd4	-0.09209409
52	0xbe9c46dd	-0.30522814
53	0x3dd47ee2	0.103757635
54	0xbe1722b7	-0.14759336
55	0x3e49dde5	0.19713552
56	0xbeda6aff	-0.42659757
57	0xbe833d00	-0.25632477
58	0x3e4cd9da	0.20004979
59	0xbd8a2730	-0.06745756
60	0xbe82207b	-0.25415406
61	0xbdfe3415	-0.124122776
62	0xbd80ace4	-0.06282976
63	0x3dc6daf3	0.0970973
64	0x3d39ffec	0.04541008
65	0xbdc92d6d	-0.098231174
66	0xbca2c416	-0.019868892
67	0xbdb81eae	-0.08990227
68	0x3eccb3d8	0.3998096
69	0x3e102dab	0.14079921
70	0x3e80eac3	0.2517911
71	0x3eb1b684	0.3470956
72	0xbe83f786	-0.25774783
73	0x3ec290bc	0.3800105
74	0xbeade5d3	-0.33964404
75	0x3e80ffc5	0.25195137
76	0x3d7733cf	0.060352143
77	0xbe91731d	-0.28408137
78	0x3ec00ce7	0.37509844
79	0x3e8a53ce	0.27017063
80	0x3db76b5f	0.08956026
81	0xbe9eba93	-0.3100172
82	0xbd342fbe	-0.043990843
83	0xbd20adfd	-0.03922843
84	0x3da43637	0.08018153
85	0x3d25316f	0.040330347
86	0x3e2932a1	0.1652322
87	0xbdf801da	-0.12109728
88	0xbe7308e7	-0.23733865
89	0xbd0ebb0e	-0.034846358
90	0x3ebe3333	0.37148437
91	0x3e662e74	0.22478658
92	0xbe107dbf	-0.14110468
93	0x3e8bf63d	0.27336302
94	0xbec398ed	-0.3820261
95	0x3ebeee62	0.37291247
96	0x3e6e7748	0.2328769
97	0xbe809899	-0.25116423
98	0xbe421898	-0.18954694
99	0x3ecd76a2	0.40129572
100	0x3de6f38a	0.1127692
101	0xbe2731f2	-0.16327646
102	0x3e3f695f	0.1869254
103	0x3e2c30b0	0.16815448
104	0x3e8de8db	0.27716717
105	0x3d40f091	0.047104422
106	0xbd71a77c	-0.058997616
107	0xbed46ad4	-0.41487753
108	0x3d4a1623	0.049337517
109	0xbd7c5f88	-0.061614543
110	0x3daad0be	0.08340596
111	0xbe50842e	-0.20362923
112	0xbde3a924	-0.111162454
113	0xbc817e76	-0.015807372
114	0xbd84296f	-0.06453215
115	0x3e999ebe	0.30003923
116	0xbe110bb7	-0.14164625
117	0xbe6df161	-0.2323661
118	0x3e81844f	0.25296256
119	0x3e2a5924	0.16635567
120	0x3b76abaa	0.003763894
121	0xbe456508	-0.19276822
122	0xbe06cc82	-0.13163951
123	0x3ea34bba	0.31893712
124	0x3ecb4fca	0.39709312
125	0x3ead2923	0.33820447
126	0x3bed281e	0.0072374484
127	0xbe44eb56	-0.19230399
128	0xbded8d4c	-0.11599216
129	0x3edc64ff	0.43045804
130	0x3e88ad8d	0.2669491
131	0xbc947bd2	-0.018125448
132	0xbd9ef37c	-0.07761285
133	0x3e1ea4c6	0.15492544
134	0xbd965e39	-0.0734219
135	0x3e8d0663	0.27543935
136	0xbc350121	-0.011047632
137	0xbe554d77	-0.20830332
138	0xbe85db8e	-0.2614407
139	0x3e39d63f	0.18148135

bias f4 [7]
0	0xbd54b8bf	-0.051934
1	0xbe3ea9c2	-0.18619445
2	0x3cd213bb	0.025644174
3	0x3d63e918	0.055642217
4	0x3d2718cf	0.040795144
5	0xbcf8225f	-0.030289827
6	0xbe1a2119	-0.15051688
