q_network.pth (torch, 15324 bytes, 6 tensors)

weight f4 [42, 42]
-0.07124594 0.14054272 0.05569058 -0.09755166 -0.081165574 0.16987176 -0.115398765 -0.019735288
0.074464865 -0.13454674 -0.07219836 -0.2624549 -0.046640065 -0.0006919715 0.3675433 -0.11439851
0.009531727 -0.14820665 -0.29910573 0.033853706 0.27157596 0.124493144 -0.0013239252 0.1822868
-0.010760861 0.20308214 -0.12299827 0.29897323 0.018725526 0.06754155 -0.020584015 -0.01668496
-0.0988511 0.158901 0.16180089 -0.25597122 0.11546031 -0.4825354 -0.040308766 -0.38568082
0.023126304 -0.009763712 0.1628821 0.04424673 0.0077289743 0.17310111 0.049295608 -0.017472032
-0.07537605 -0.30992383 -0.0066082333 0.05068508 0.07586701 0.16912739 -0.2521764 -0.051408384
0.46251386 0.20343001 0.12462407 0.17913368 -0.08665409 0.054708615 0.08372817 0.31486842
0.3044031 -0.13143879 0.10979705 0.07797923 0.36716023 -0.0045128977 0.26134583 -0.015399609
0.09427279 -0.14592618 -0.18698753 0.08423766 -0.29196486 0.15761797 -0.022506448 0.0014964102
-0.0911708 -0.1956753 -0.010757978 -0.2560317 -0.15668891 -0.1766089 -0.05633987 -0.047340415
-0.10815752 -0.00063265493 -0.086918786 -0.21172377 0.33301553 -0.122243054 -0.22464222 0.23187849
-0.09715191 0.029442487 -0.059985045 -0.36630553 0.13390994 -0.18251285 0.2146114 0.19283453
-0.30122975 -0.019055093 0.03109993 -0.32604676 -0.38106447 0.34199092 -0.05369988 -0.063987315
-0.059884466 0.04837234 0.05073924 0.02567407 0.27599227 -0.13852508 0.048425525 -0.06474535
0.30300686 -0.022693584 -0.01287625 0.22158767 -0.14359486 0.03157843 0.070683956 -0.107709914
-0.028798196 -0.07017797 0.006843431 -0.066715375 -0.010102889 -0.057324488 -0.19449994 -0.051335413
0.023001805 -0.18894885 0.005289957 0.10312852 0.17151223 -0.030944603 0.1558513 -0.123994865
-0.06496045 -0.16807474 0.31440878 0.02736019 -0.15030666 0.24208447 -0.14488879 -0.07215071
0.086169586 0.36524183 0.004705442 -0.10703478 0.2681047 -0.18504344 0.2746727 -0.29536417
0.07416692 0.06659969 -0.21290594 0.046724908 0.003230207 0.22960165 -0.11965193 0.13131195
0.047868147 -0.025603255 0.16816294 0.3630603 -0.11235222 -0.19539338 0.115249895 0.16540855
0.25724334 -0.24650489 -0.32634294 0.03229009 0.12174348 -0.25872985 -0.33013508 0.12925339
0.04983227 -0.042564213 0.1966216 0.05289787 0.072725445 -0.10641841 0.11210575 -0.083079375
0.09018243 -0.05708411 0.017890627 0.2386572 0.1480361 0.2277119 -0.07449615 -0.29127336
0.2520475 -0.15193498 0.0027584874 -0.086752616 -0.08837048 0.04186342 0.18469071 0.07213763
-0.020908907 -0.06664583 -0.022026697 0.26105744 -0.090238996 0.018759172 -0.07584277 -0.12017572
0.25885734 -0.31131408 0.18028505 -0.26071975 0.14290553 -0.017244421 0.104885474 -0.027478302
0.33147708 0.1388481 -0.28032067 0.40820763 0.17116117 0.040626854 -0.0054600136 -0.08973503
0.2509509 -0.5146473 0.23904383 0.20385769 0.14775904 0.32208398 -0.1539916 -0.027377324
0.06879686 0.13466547 0.11296341 0.10636108 0.026500914 -0.10378509 -0.04407834 -0.320162
0.13086224 0.024708178 0.0074593937 -0.05921475 -0.053881224 -0.025991049 0.015433054 0.07262096
00000000: 64e9 91bd 6eea 0f3e ce1b 643d 2ac9 c7bd
00000010: 233a a6bd ddf2 2d3e 3056 ecbd e6ab a1bc
00000020: 0981 983d 9fc6 09be bcdc 93bd 7d60 86be
00000030: a709 3fbd 6c65 35ba a32e bc3e c449 eabd
00000040: f62a 1c3c 7cc3 17be 6324 99be 2faa 0a3d
00000050: 010c 8b3e 43f6 fe3d 8f87 adba 64a9 3a3e
00000060: 534e 30bc c4f4 4f3e 84e6 fbbd 0513 993e
00000070: 4666 993c 3953 8a3d cf9f a8bc e6ae 88bc
00000080: 7272 cabd f2b6 223e 22af 253e a90e 83be
00000090: 7476 ec3d e10e f7be ce1a 25bd f577 c5be
000000a0: 6073 bd3c faf7 1fbc 91ca 263e 0f3c 353d
000000b0: 5643 fd3b 6b41 313e 31ea 493d 8221 8fbc
000000c0: c25e 9abd 56ae 9ebe e189 d8bb 299b 4f3d
000000d0: 2a60 9b3d bb2f 2d3e 441d 81be 9991 52bd
000000e0: 9ece ec3e f54f 503e e83a ff3d d26e 373e
000000f0: b377 b1bd 2416 603d ad79 ab3d 6f36 a13e
00000100: b9da 9b3e e497 06be 47dd e03d 93b3 9f3d
00000110: 6dfc bb3e eee0 93bb 1fcf 853e a44e 7cbc
00000120: 1812 c13d ac6d 15be a979 3fbe cb84 ac3d
00000130: 6b7c 95be 9b66 213e 715f b8bc 3223 c43a
00000140: c2b7 babd 1b5f 48be 3b42 30bc 9616 83be
00000150: 0f73 20be f7d8 34be a3c4 66bd 06e8 41bd
00000160: b181 ddbd c1d8 25ba 7a02 b2bd 1ece 58be
00000170: 0381 aa3e 915a fabd 9c08 66be 8e71 6d3e
00000180: 95f7 c6bd 5f31 f13c e1b2 75bd 668c bbbe
00000190: b01f 093e a6e4 3abe 17c3 5b3e 6a76 453e
000001a0: c93a 9abe 6d19 9cbc 48c5 fe3c 9aef a6be
000001b0: e21a c3be 6f19 af3e 68f4 5bbd c80b 83bd
000001c0: 6a49 75bd 1322 463d f3d3 4f3d 6d52 d23c
000001d0: dc4e 8d3e 85d9 0dbe d859 463d 3699 84bd
000001e0: b723 9b3e e5e7 b9bc e8f6 52bc e1e7 623e
000001f0: 880a 13be 6258 013d c0c2 903d 0497 dcbd
00000200: 32ea ebbc 78b9 8fbd dc3e e03b 12a2 88bd
00000210: 9686 25bc 15cd 6abd fe2a 47be 1545 52bd
00000220: 486e bc3c cf7b 41be 6057 ad3b 0c35 d33d
00000230: e7a0 2f3e 897f fdbc 7c97 1f3e 05f1 fdbd
00000240: fc09 85bd c91b 2cbe 30fa a03e 7a22 e03c
00000250: fde9 19be fee4 773e ba5d 14be c0c3 93bd
00000260: ae79 b03d fa00 bb3e 1c30 9a3b 0d35 dbbd
00000270: 0545 893e 077c 3dbe e6a1 8c3e f939 97be
00000280: d3e4 973d 6b65 883d 0404 5abe 9e62 3f3d
00000290: e1b1 533b b21c 6b3e 120c f5bd a476 063e
000002a0: 6411 443d ebbd d1bc e832 2c3e 0ae3 b93e
000002b0: ec18 e6bd 3415 48be 2308 ec3d dc60 293e
000002c0: 66b5 833e c76b 7cbe 6c16 a7be 9d42 043d
000002d0: a554 f93d 3d78 84be 7707 a9be 005b 043e
000002e0: ec1c 4c3d d057 2ebd 2c57 493e 70ab 583d
000002f0: 14f1 943d e5f1 d9bd b397 e53d 8525 aabd
00000300: 91b1 b83d 07d1 69bd 5d8f 923c 8e62 743e
00000310: c796 173e 4f2d 693e 7091 98bd c821 95be
00000320: 5f0c 813e d894 1bbe bdc7 343b 5bab b1bd
00000330: 95fb b4bd fa78 2b3d 901f 3d3e e5bc 933d
00000340: 2849 abbc 9c7d 88bd 5571 b4bc 52a9 853e
00000350: 39cf b8bd d6ac 993c 7453 9bbd b01e f6bd
00000360: f388 843e 8f64 9fbe a59c 383e 0f7d 85be
00000370: d455 123e 2c44 8dbc 32ce d63d 2d1a e1bc
00000380: 5db7 a93e 322e 0e3e 3186 8fbe 9700 d13e
00000390: e044 2f3e 5868 263d eae9 b2bb 00c7 b7bd
000003a0: a37c 803e edbf 03bf e8c7 743e 12c0 503e
000003b0: 254e 173e 31e8 a43e f9af 1dbe 6946 e0bc
000003c0: 5ee5 8c3d bfe5 093e 5c59 e73d d7d3 d93d
000003d0: 7218 d93c 478d d4bd 7d8b 34bd 46ec a3be
000003e0: c000 063e ce68 ca3c ee6d f43b 2a8b 72bd
000003f0: 8fb2 5cbd 2eeb d4bc ecda 7c3c 4cba 943d

bias f4 [42]
0.021606846 -0.13987076 0.081250556 -0.10141592 -0.0031943752 0.22303367 0.3892617 -0.018551724
0.17770937 -0.1267111 0.23883574 -0.054307282 0.0621851 -0.47332788 -0.0041678194 -0.15982878
-0.30410036 0.21341763 0.19283077 -0.23574665 -0.16512522 0.21809074 -0.4254891 -0.28776413
-0.14962132 0.11545123 0.36035287 -0.33458674 -0.14771312 -0.064204395 -0.20279732 0.144542
-0.21257652 -0.1796373 -0.13961013 0.06740015 0.14543436 -0.2030084 0.19057068 -0.1938216
0.25435516 0.11604467
00000000: d700 b13c 483a 0fbe b166 a63d 26b3 cfbd
00000010: b958 51bb f062 643e 4f4d c73e c9f9 97bc
00000020: 72f9 353e 8ec0 01be 5b91 743e 5071 5ebd
00000030: ceb5 7e3d 0858 f2be 3492 88bb 28aa 23be
00000040: 0bb3 9bbe 278a 5a3e 6e75 453e 9267 71be
00000050: 9616 29be 2e53 5f3e b5d9 d9be d255 93be
00000060: 5536 19be b271 ec3d 2c80 b83e f44e abbe
00000070: 1c42 17be 987d 83bd 1aaa 4fbe d102 143e
00000080: a9ad 59be d7f2 37be f5f5 0ebe 1709 8a3d
00000090: bfec 143e 6fe1 4fbe f624 433e 2b79 46be
000000a0: d73a 823e d4a8 ed3d

weight f4 [20, 42]
-0.31401208 0.008858547 -0.07349771 0.12092679 0.21621464 -0.041915964 -0.10899261 -0.0027229097
-0.06935363 -0.045099884 -0.021512859 0.117713064 -0.14871317 -0.3117308 0.19582075 0.1153638
-0.12204005 -0.087912306 0.042894334 0.008584755 -0.07656574 0.14992909 -0.28870693 -0.17309761
0.0028254553 -0.15161516 0.09050097 0.18493338 -0.20801352 -0.030558318 0.12211528 0.13009311
0.08469203 -0.2053474 -0.009806829 0.08807523 0.13206303 -0.021099959 -0.07312207 -0.0077767232
-0.09078403 -0.21634574 -0.7287966 -0.009830777 -0.23280317 -0.17819045 0.05115684 0.18496475
-0.19910063 0.16330242 0.021208465 0.20451519 0.21285269 0.17794491 -0.12789026 -0.18945092
0.15353866 0.39941964 0.104505375 -0.44743386 0.17964514 0.21382718 -0.38816056 0.10983305
-0.16392444 0.23355393 -0.17824389 -0.14821178 0.069914006 0.202117 -0.47625282 -0.22706018
-0.05454767 -0.44177705 0.10634724 -0.39931148 0.31973013 0.18276314 0.04259681 0.24335308
-0.093424685 0.3409077 -0.21045372 -0.1901537 0.102960505 -0.08591746 -0.066631645 0.03963502
-0.28433794 -0.18519707 0.0637618 0.09310796 -0.0992664 -0.10672162 -0.05508586 -0.20412776
0.048148457 0.07542766 -0.07240592 -0.057847396 0.10624314 0.017033719 -0.025267065 0.3000005
-0.24239753 -0.022121789 0.022081554 0.020682713 -0.120837905 0.111938775 -0.15964067 0.07966771
0.038025957 -0.23089477 0.27178025 0.22372478 -0.12693548 0.17398146 -0.20665585 -0.19559573
0.1031356 -0.069159016 0.15413663 0.12335987 -0.021800168 -0.06310251 0.06538846 -0.03386896
-0.06383932 -0.09330227 0.19880547 -0.116994075 -0.2765446 0.071731694 0.06838961 -0.0034267064
0.18105075 -0.0163567 0.23419213 -0.43908727 0.21373498 0.20641936 -0.4285786 0.071175866
-0.6616149 -0.66303414 0.12144963 -0.09443679 -0.55696255 -0.116261795 0.08120731 -0.20774451
0.17939605 -0.31541958 -0.11148878 -0.30292952 0.121661454 -0.086083286 -0.10717401 -0.1149368
-0.26508167 0.2842204 0.012950312 -0.30715927 0.08938041 -0.39469722 0.08566114 -0.15460463
0.1264637 -0.22615492 -0.06952661 0.20862898 -0.18313214 -0.022413895 0.2666461 -0.072848566
-0.092057034 -0.14700226 0.07851173 -0.083634816 -0.030682001 0.23313352 -0.05234859 0.077976264
0.25030935 0.10905519 -0.0025273417 0.18398656 -0.28075522 -0.0558503 0.060525563 -0.034849416
-0.16116801 0.17270054 -0.12117711 0.07454229 -0.39961478 0.16244401 -0.20230204 0.27182066
0.22260271 0.06618192 0.20544462 0.08770578 -0.088173695 0.05164428 0.019438332 0.32829773
0.12151879 0.21186547 -0.06089449 0.21570434 0.087666765 -0.113317885 0.15002315 -0.024121976
-0.015740896 0.17088822 0.32900435 0.03309677 0.20095922 0.06611671 -0.041563865 -0.42520642
0.15570188 0.028682215 -0.43220976 0.08898117 -0.31770548 -0.18385005 0.016286349 0.08302597
-0.4026362 -0.1348181 -0.3226852 0.08255291 0.30102217 -0.34346694 0.46798038 -0.08619277
0.20541243 -0.16458513 -0.078523055 -0.19291115 -0.13152286 0.069117844 0.2691689 -0.045910224
0.19959311 -0.32555017 0.08451238 0.18379052 0.016269172 0.10952424 0.19494285 0.27645203
00000000: 31c6 a0be 7023 113c f885 96bd 77a8 f73d
00000010: 5f67 5d3e 13b0 2bbd 8437 dfbd d872 32bb
00000020: 4709 8ebd a8ba 38bd bc3b b0bc 8c13 f13d
00000030: 4448 18be 2e9b 9fbe 3c85 483e db43 ec3d
00000040: 22f0 f9bd 5e0b b4bd f8b1 2f3d 12a7 0c3c
00000050: 80ce 9cbd 0387 193e 65d1 93be 8040 31be
00000060: 462b 393b 0141 1bbe 9358 b93d 2d5f 3d3e
00000070: 7f01 55be 7055 fabc 9317 fa3d 2137 053e
00000080: 0473 ad3d 9746 52be d2ac 20bc c960 b43d
00000090: 883b 073e d2d9 acbc 06c1 95bd e2d3 febb
000000a0: faec b9bd bd89 5dbe 6a92 3abf 4411 21bc
000000b0: f463 6ebe 8f77 36be d689 513d 6667 3d3e
000000c0: 09e1 4bbe c038 273e 60bd ad3c 6e6c 513e
000000d0: 0ef6 593e 3137 363e aaf5 02be 6cff 41be
000000e0: 3d39 1d3e bb80 cc3e ea06 d63d 0d16 e5be
000000f0: e5f4 373e 83f5 5a3e fbbc c6be 26f0 e03d
00000100: cfdb 27be c328 6f3e 9185 36be d4c4 17be
00000110: 132f 8f3d c2f7 4e3e 69d7 f3be 7782 68be
00000120: 616d 5fbd 9a30 e2be 95cc d93d 8e72 ccbe
00000130: abb3 a33e 4326 3b3e fe79 2e3d 8d31 793e
00000140: 7155 bfbd 748b ae3e 2e81 57be a7b7 42be
00000150: f5dc d23d 7ef5 afbd 2c76 88bd 5558 223d
00000160: be94 91be 4da4 3dbe 8c95 823d 63af be3d
00000170: 2f4c cbbd dd90 dabd b6a1 61bd de06 51be
00000180: 5137 453d d179 9a3d 8e49 94bd 64f1 6cbd
00000190: 0196 d93d 4c8a 8b3c e0fc cebc aa99 993e
000001a0: 0f37 78be c138 b5bc 60e4 b43c cb6e a93c
000001b0: dd79 f7bd 2840 e53d d878 23be d328 a33d
000001c0: 1bc1 1b3d ae6f 6cbe c826 8b3e 1c18 653e
000001d0: 60fb 01be 3228 323e 979d 53be 3f4a 48be
000001e0: c238 d33d 3ea3 8dbd fed5 1d3e 19a4 fc3d
000001f0: 4496 b2bc e43b 81bd 63ea 853d 2eba 0abd
00000200: 30be 82bd 4315 bfbd a993 4b3e 979a efbd
00000210: 4197 8dbe 11e8 923d da0f 8c3d 9892 60bb
00000220: 5e65 393e 7cfe 85bc 10d0 6f3e 0cd0 e0be
00000230: 58dd 5a3e 995f 533e a76e dbbe a7c4 913d
00000240: 985f 29bf 9bbc 29bf 95ba f83d 1368 c1bd
00000250: 1995 0ebf aa1a eebd 0550 a63d faba 54be
00000260: 99b3 373e ad7e a1be 3b54 e4bd 9419 9bbe
00000270: a429 f93d 6f4c b0bd 0c7e dbbd fc63 ebbd
00000280: c9b8 87be 5685 913e 8c2d 543c fb43 9dbe
00000290: 140d b73d c115 cabe 1c6f af3d ad50 1ebe
000002a0: b37f 013e 2895 67be f863 8ebd d6a2 553e
000002b0: fe86 3bbe 589d b7bc d685 883e a131 95bd
000002c0: 6688 bcbd c387 16be c2ca a03d bb48 abbd
000002d0: d258 fbbc 8eba 6e3e 7a6b 56bd 05b2 9f3d
000002e0: 8c28 803e 5458 df3d c2a1 25bb f966 3c3e
000002f0: 26bf 8fbe 49c3 64bd a7e9 773d 43be 0ebd
00000300: 3a09 25be 69d8 303e b42b f8bd a1a9 983d
00000310: 4f9a ccbe b957 263e 4428 4fbe 142c 8b3e
00000320: f7f1 633e 638a 873d 1360 523e 179f b33d
00000330: 6994 b4bd f488 533d 233d 9f3c a416 a83e
00000340: d8de f83d 43f3 583e 806c 79bd 99e1 5c3e
00000350: a28a b33d 3513 e8bd ab9f 193e 739b c5bc
00000360: 0df3 80bc 52fd 2e3e 4273 a83e 7b90 073d
00000370: 41c8 4d3e 3368 873d df3e 2abd a8b4 d9be
00000380: 5070 1f3e f7f6 ea3c 994a ddbe c23b b63d
00000390: 4baa a2be 3043 3cbe f36a 853c 8509 aa3d
000003a0: 5526 cebe c20d 0abe ff36 a5be 8011 a93d
000003b0: 941f 9a3e e6da afbe 209b ef3e d685 b0bd
000003c0: a357 523e 0189 28be b2d0 a0bd 808a 45be
000003d0: eead 06be a88d 8d3d 82d0 893e 5c0c 3cbd
000003e0: 2362 4c3e 83ae a6be d414 ad3d 9533 3c3e
000003f0: ed46 853c 3f4e e03d 199f 473e 1f8b 8d3e

bias f4 [20]
0.23216486 0.12656319 -0.15579161 0.16184396 0.13293764 0.05162089 0.02100623 0.06785424
-0.072569706 0.16610733 0.11367469 0.14966315 0.047174696 0.07765638 0.04794907 0.25238204
0.2551931 0.21055047 -0.15835483 0.05547341
00000000: a0bc 6d3e c899 013e d687 1fbe 6cba 253e
00000010: ce20 083e 6d70 533d 4215 ac3c 2af7 8a3d
00000020: 6d9f 94bd 0a18 2a3e 47ce e83d 4c41 193e
00000030: 413a 413d 4f0a 9f3d 3e66 443d 3838 813e
00000040: aca8 823e 8b9a 573e c527 22be 1638 633d

weight f4 [7, 20]
-0.036471415 0.45369366 -0.07212996 0.25670978 -0.19072324 0.25599086 -0.31664464 0.29688406
0.1746967 0.3146774 -0.29430464 0.37151083 0.26570657 0.21382143 0.1690829 -0.40936038
0.57598746 0.33069032 0.22092317 -0.04638699 0.22733551 0.2405621 -0.17032649 0.26680076
0.06660109 0.33203635 -0.12877372 0.07600634 0.12836699 0.11834394 -0.3043146 0.07734984
0.28295726 0.28722164 0.08479594 -0.30314252 0.28266516 0.38778624 0.6804801 -0.22797525
-0.22182609 0.6285799 -0.41819417 0.39441922 -0.19603717 0.37836707 -0.035058428 0.4580052
0.39739192 0.17624544 -0.62345076 0.1077828 0.053496756 0.16757937 0.08536698 -0.2857078
0.2764005 0.11917964 0.11258346 -0.16442116 0.071929306 0.46844038 -0.20112586 0.037996266
-0.0074911476 0.17439258 0.17831269 0.28374922 0.26516634 0.30299821 -0.547644 0.37693462
0.25408658 0.21664326 0.19660938 -0.3508315 0.30689585 0.34079665 0.23253316 -0.1100729
-0.0856262 0.42194313 -0.05579853 0.20957641 -0.26474896 0.29072732 -0.2375707 0.4394762
0.1538947 -0.09684156 -0.31613687 0.24032854 0.20927918 0.2432598 -0.037267644 -0.33834544
0.3377518 0.14834407 0.23602211 -0.0997992 0.20269556 0.2542841 -0.20062554 0.34318736
-0.21155562 0.20954168 -0.1576022 0.19346602 0.20266941 0.06406578 -0.25132784 -0.0037625781
0.3247074 0.3849765 0.2855425 -0.23038542 0.37474424 0.4761055 0.28429386 -0.24761759
0.19940658 0.41849843 -0.029952716 0.45228553 -0.15173075 0.22510652 -0.23059124 0.3778532
0.10671884 0.09968492 -0.23390077 0.25197336 0.16044721 0.19290769 0.42762044 -0.3893355
0.3332344 0.43276447 0.030274052 -0.17434777
00000000: 0d63 15bd 894a e83e dfb8 93bd 776f 833e
00000010: f44c 43be 3c11 833e 3f1f a2be 3001 983e
00000020: b1e3 323e 651d a13e 19af 96be ab36 be3e
00000030: b10a 883e 01f4 5a3e 1124 2d3e af97 d1be
00000040: ea73 133f 3e50 a93e af39 623e 4900 3ebd
00000050: a4ca 683e e955 763e 116a 2ebe 1c9a 883e
00000060: 2766 883d ab00 aa3e 42dd 03be 36a9 9b3d
00000070: a372 033e 4f5e f23d 20cf 9bbe 9869 9e3d
00000080: c6df 903e b70e 933e 7ea9 ad3d 7f35 9bbe
00000090: 7db9 903e eb8b c63e f233 2e3f 5872 69be
000000a0: 6126 63be 9dea 203f 8c1d d6be 51f1 c93e
000000b0: f8bd 48be 54b9 c13e 6d99 0fbd a87f ea3e
000000c0: f476 cb3e af79 343e 789a 1fbf 3bbd dc3d
000000d0: 6a1f 5b3d ed99 2b3e e2d4 ae3d 4b48 92be
000000e0: 5e84 8d3e 7514 f43d 2892 e63d 055e 28be
000000f0: ac4f 933d 6bd7 ef3e f0f3 4dbe f9a1 1b3d
00000100: 4d78 f5bb f893 323e 9a97 363e 9447 913e
00000110: e2c3 873e 9522 9b3e 6632 0cbf 93fd c03e
00000120: a317 823e bbd7 5d3e f853 493e 30a0 b3be
00000130: 7421 9d3e e67c ae3e 2c1d 6e3e e76d e1bd
00000140: ca5c afbd ee08 d83e 008d 64bd 339b 563e
00000150: 2d8d 87be 36da 943e bc45 73be 0603 e13e
00000160: 9296 1d3e de54 c6bd b1dc a1be af18 763e
00000170: 484d 563e 1919 793e f5a5 18bd 9d3b adbe
00000180: ceed ac3e 82e7 173e c8af 713e 8663 ccbd
00000190: 6d8f 4f3e 8731 823e c870 4dbe 41b6 af3e
000001a0: 09a2 58be 1892 563e 7962 21be f51b 463e
000001b0: 9288 4f3e eb34 833d 0bae 80be 9695 76bb
000001c0: 0c40 a63e a41b c53e a032 923e 28ea 6bbe
000001d0: 7ade bf3e 1ac4 f33e f78e 913e 778f 7dbe
000001e0: 3d31 4c3e 6d45 d63e 665f f5bc f891 e73e
000001f0: 4e5f 1bbe 5382 663e 1c20 6cbe fa75 c13e
00000200: 688f da3d 9b27 cc3d af83 6fbe a702 813e
00000210: 464c 243e 9889 453e 11f1 da3e fc56 c7be
00000220: b39d aa3e 4e93 dd3e 4a01 f83c 3988 32be

bias f4 [7]
-0.012790108 -0.12092931 0.041736968 -0.15375884 0.01904232 -0.07482326 -0.028554974
00000000: 9a8d 51bc c9a9 f7bd 62f4 2a3d f572 1dbe
00000010: a4fe 9b3c f03c 99bd 1fec e9bc
